3-neural_network_classification/models/classification.pth (torch, 2184 bytes, 3 tensors)

linear_layer_1.weight f4 [5, 2]
000000 f4 05 31 bf 6a 42 02 3f 63 a5 cc 3e cc c2 1e bf
       -0.6914971 0.5088259 0.3996993 -0.62015986
000010 a9 7d 3a be cb 58 cd 3d 24 b3 87 be 37 d5 db 3b
       -0.18211998 0.100267015 -0.2650386 0.006708767
000020 d5 a0 b3 be e4 81 6f 3e
       -0.35083643 0.23389393

linear_layer_1.bias f4 [5]
000000 6c 75 20 be 4e 20 8b 3d 72 8d ce bd 94 3b 90 be
       -0.15669793 0.06793271 -0.10085572 -0.28170455
000010 16 8c 3f bd
       -0.046764456

linear_layer_2.weight f4 [1, 5]
000000 aa e2 8f bd f2 fb a7 3c fd 79 16 3e eb c2 a1 3d
       -0.070256546 0.02050588 0.14694972 0.07898506
000010 37 48 df 3d
       0.10902446
