3-neural_network_classification/models/improved_classification.pth (torch, 2320 bytes, 3 tensors)

linear_layer_1.weight f4 [5, 2]
0	0x3eac0a72	0.3360172
1	0x3e708e21	0.23491718
2	0xbec20cfb	-0.37900528
3	0x3f31b2e8	0.69413614
4	0x3f096074	0.536628
5	0xbf211c88	-0.6293416
6	0x3e840ed4	0.25792563
7	0x3f013f2f	0.50487036
8	0xbef55714	-0.47917998
9	0xbe8e4a76	-0.27791184

linear_layer_1.bias f4 [5]
0	0x3e147139	0.14496316
1	0xbe07f618	-0.13277471
2	0xbe860a91	-0.26179937
3	0x3f1e7283	0.6189348
4	0x3df516a5	0.1196721

linear_layer_2.weight f4 [1, 5]
0	0xbeb51cde	-0.35373586
1	0x3b75bada	0.0037495405
2	0xbe4c175d	-0.19930787
3	0xbecfee83	-0.40611658
4	0xbeb9477b	-0.36187348
