3-neural_network_classification/models/multi_class_classification.pth (torch, 3462 bytes, 6 tensors)

layer_stack.0.weight f4 [8, 2]
-0.53472227 0.45316353 1.0589697 1.2492166 0.19039382 0.6636709 0.6505195 -0.035050824
-0.44271395 -1.2914128 -0.079168506 0.36516666 1.1249621 0.58295095 1.4745319 0.17647104
00000000: 8fe3 08bf 0d05 e83e 528c 873f 54e6 9f3f
00000010: 99f6 423e 56e6 293f 7288 263f 7491 0fbd
00000020: 67ab e2be 044d a5bf 1923 a2bd 20f7 ba3e
00000030: c2fe 8f3f 463c 153f 76bd bc3f d3b4 343e

layer_stack.0.bias f4 [8]
-0.015406882 0.76977384 1.0624906 0.32456443 -0.09949518 0.9832517 0.37453648 1.4836609
00000000: 266d 7cbc e60f 453f b1ff 873f 4f2d a63e
00000010: 21c4 cbbd 62b6 7b3f 3fc3 bf3e 9ae8 bd3f

layer_stack.2.weight f4 [8, 8]
0.07710932 0.5752027 0.6974148 -0.025522012 0.605775 0.40501252 -0.06582793 -1.0631477
-0.17239985 0.13047902 -0.0058441283 0.22604987 0.69633734 0.07136336 0.17587748 0.4336727
-0.1495505 -0.5378487 -0.3804741 -0.5184611 -0.21549375 -0.6986645 -0.385467 -0.41332167
-0.5086028 0.8311702 0.51242894 0.52853245 -0.064658895 -0.18528181 0.4195377 0.51004577
-0.067730755 -0.30557007 -0.3873265 -0.021118546 0.6985233 -0.33193856 -0.7273826 0.25220275
-0.49529734 -0.15588675 0.06258321 0.25825098 0.8911807 -0.003914468 0.047871806 1.0921159
0.008569152 0.95749414 0.583726 0.706142 -0.59811014 0.31088606 0.89970016 0.88417166
0.8128239 -0.8442068 0.5640324 -0.45651808 0.4248491 0.6691865 -0.50656366 -0.15880498
00000000: 7eeb 9d3d 7c40 133f c789 323f 8a13 d1bc
00000010: 1214 1b3f cd5d cf3e cbd0 86bd 3915 88bf
00000020: 9689 30be 4b9c 053e 1a80 bfbb 9e79 673e
00000030: 2a43 323f f426 923d 3a19 343e 590a de3e
00000040: c423 19be 74b0 09bf 80cd c2be deb9 04bf
00000050: 65aa 5cbe addb 32bf ee5b c5be e69e d3be
00000060: cb33 02bf 92c7 543f 8b2e 033f e74d 073f
00000070: e26b 84bd 84ba 3dbe a5cd d63e 5c92 023f
00000080: 6cb6 8abd ae73 9cbe a94f c6be cd00 adbc
00000090: 6cd2 323f daf3 a9be bf35 3abf b820 813e
000000a0: 9d97 fdbe c7a0 1fbe a02b 803d 7939 843e
000000b0: 6b24 643f f044 80bb 3a15 443d 74ca 8b3f
000000c0: a165 0c3c 561e 753f 116f 153f b9c5 343f
000000d0: bf1d 19bf 752c 9f3e c052 663f 1359 623f
000000e0: 3a15 503f f01d 58bf 6d64 103f bdbc e9be
000000f0: d285 d93e ce4f 2b3f 28ae 01bf c69d 22be

layer_stack.2.bias f4 [8]
0.5104294 0.19799262 -0.1843608 -0.192424 -0.14989206 0.14468679 0.13199493 0.75578445
00000000: 80ab 023f 94be 4a3e 14c9 3cbe cc0a 45be
00000010: 4e7d 19be c628 143e ae29 073e 177b 413f

layer_stack.4.weight f4 [4, 8]
0.8635954 -0.801183 -0.698194 -0.028732618 -0.86394227 -0.5179644 0.26164725 -1.0415347
-0.8481966 -0.45188195 0.19948606 0.061198078 -1.0243623 0.40854052 0.39882934 -1.0304972
-0.11923523 0.48396868 -0.75334746 0.08447785 0.5461816 0.38055053 -1.0837045 -0.7371961
-0.11656972 -0.710403 -0.28546 -0.8758225 -0.4901415 -0.66398555 -0.24186069 0.86972386
00000000: 9714 5d3f 541a 4dbf d8bc 32bf ab60 ebbc
00000010: 522b 5dbf 5199 04bf a1f6 853e 0251 85bf
00000020: 6a23 59bf 125d e7be 1346 4c3e d6aa 7a3d
00000030: 4e1e 83bf 392c d13e 5c33 cc3e 55e7 83bf
00000040: 9a31 f4bd beca f73e 61db 40bf b902 ad3d
00000050: 8fd2 0b3f 85d7 c23e d4b6 8abf e2b8 3cbf
00000060: 1bbc eebd f9dc 35bf d027 92be e735 60bf
00000070: d4f3 fabe f5fa 29bf 54aa 77be 39a6 5e3f

layer_stack.4.bias f4 [4]
0.046639264 -0.5746273 -0.22222306 1.0833182
00000000: d008 3f3d c61a 13bf 718e 63be 2caa 8a3f
