6-going_modular/models/script_mode.pth (torch, 655749 bytes, 10 tensors)

conv_block_1.0.weight f4 [50, 3, 3, 3]
0	0x3e07e931	0.13272549
1	0xbe370012	-0.1787112
2	0xbd6cc97c	-0.057809338
3	0x3e41bab6	0.18918881
4	0xbda94bf3	-0.08266439
5	0xbd9dee2e	-0.07711445
6	0x3d0a1206	0.033708595
7	0xbd796fe6	-0.06089773
8	0x3c9c03fc	0.019044869
9	0xbdff9f6f	-0.124815814
10	0xbd30dc49	-0.04317883
11	0xbdb843ae	-0.08997284
12	0xbc460d2b	-0.0120881
13	0xbdf573fb	-0.11985012
14	0x3e07e076	0.13269219
15	0x3e3a4957	0.1819204
16	0xbcdbc235	-0.026826004
17	0x3e56d549	0.209798
18	0xbc93056d	-0.017946923
19	0xbe40dc35	-0.18834002
20	0x3d949829	0.07255585
21	0xbdc1f522	-0.094705835
22	0x3e55e327	0.20887433
23	0x3d81beed	0.06335244
24	0xb9226ca6	-0.00015489999
25	0x3e0b0dd0	0.13579488
26	0xbdce3538	-0.100687444
27	0x3d9183ce	0.07105218
28	0x3c3b1a06	0.011419779
29	0xbd30f042	-0.043197878
30	0x3e03a147	0.12854491
31	0xbd683b9f	-0.056697484
32	0x3dd4b1bd	0.103854634
33	0x3e1d55a0	0.15364695
34	0x3e0bbeaa	0.13646951
35	0x3d93ef38	0.07223362
36	0xbd221fcb	-0.0395811
37	0xbd9b4a33	-0.07582512
38	0x3cfcb02f	0.03084573
39	0x3cc296b2	0.023753498
40	0xbe409966	-0.18808517
41	0x3e10934c	0.1411869
42	0xbddeec56	-0.10884921
43	0x3d2ae127	0.04171863
44	0xbdcfb0b4	-0.10141125
45	0xbdd16cd9	-0.10225839
46	0x3dfb37cc	0.12266502
47	0x3e1c137b	0.15241806
48	0xbd0d42e0	-0.034487605
49	0x3e0b335f	0.13593815
50	0x3d947d1d	0.07250426
51	0x3cfe58e1	0.03104824
52	0xbe2e9ca0	-0.17051935
53	0xbd18c598	-0.037297815
54	0x3d29a258	0.04141459
55	0x3df8da52	0.12151016
56	0xbe31cca9	-0.17363228
57	0xbe25cde1	-0.16191818
58	0x3dda699a	0.10664673
59	0x3e3d9809	0.18515028
60	0xbdf26a7b	-0.11836716
61	0x3d81b920	0.06334138
62	0xbd9d2591	-0.07673181
63	0xbde4622f	-0.111515395
64	0xbdf32651	-0.11872543
65	0xbd9b9eaa	-0.07598622
66	0x3ca25882	0.019817594
67	0xbdab587d	-0.08366487
68	0x3dec32cc	0.11533126
69	0xbdd735e9	-0.105083294
70	0x3e33f1cd	0.17572708
71	0x3dd8dce2	0.10589005
72	0xbdcd8d47	-0.10036712
73	0x3dd15b5a	0.10222502
74	0x3c8c4c8b	0.017126342
75	0xbe02f37f	-0.12788199
76	0xbd4aeea4	-0.04954399
77	0x3dd125f8	0.1021232
78	0xbe48784e	-0.19577143
79	0x3e3a9e94	0.18224555
80	0x3d6ca621	0.05777562
81	0xbe5b3bba	-0.21409503
82	0xbc845557	-0.016153974
83	0xbe1a946f	-0.15095685
84	0x3e094d29	0.1340834
85	0xbd9cd7aa	-0.07658322
86	0xbdc6f72f	-0.09715115
87	0xba60d7fc	-0.0008577106
88	0x3d4b9e5d	0.049711574
89	0xbd67648e	-0.05649238
90	0x3dfbea9c	0.123006076
91	0x3d62adae	0.055341415
92	0x3e1ec6a5	0.15505464
93	0x3e1520b9	0.14563264
94	0xbdd1c6ec	-0.102430195
95	0x3d4c09c9	0.04981402
96	0x3b27f4a1	0.0025627988
97	0x3c40f55b	0.011777247
98	0xbd6f196d	-0.058373857
99	0xbd50be7e	-0.050962918
100	0x3d6943bd	0.056949366
101	0x3e359053	0.17730837
102	0x3c9640f5	0.01834152
103	0x3dfa6d26	0.1222785
104	0x3d4ffa32	0.050775714
105	0xbcdbed58	-0.026846573
106	0xbe26d873	-0.16293506
107	0xbe3fd86a	-0.18734899
108	0x3e0bed7a	0.13664809
109	0x3cb38161	0.021912279
110	0xbe0e812d	-0.13916464
111	0xbe01c1f7	-0.12671648
112	0xbc452c8e	-0.012034548
113	0xbcdd60a1	-0.027023615
114	0xbd9d5594	-0.07682338
115	0x3d40baa3	0.04705299
116	0xbd14e680	-0.036352634
117	0xbe370563	-0.17873149
118	0x3e298cdd	0.16557641
119	0x3c8ba797	0.017047687
120	0xbd8c0b9e	-0.06838153
121	0x3e04f1d9	0.12982883
122	0xbdc83aa0	-0.09776807
123	0x3d85e80e	0.065384015
124	0xbd596dd6	-0.053083263
125	0xbc649fd9	-0.013954126
126	0xbc2aad0c	-0.010417234
127	0x3d550118	0.052002996
128	0xbd980086	-0.07421975
129	0x3cb41541	0.02198279
130	0xbcc5641c	-0.024095587
131	0x3d1aa41d	0.037754167
132	0xbd94b4f1	-0.07261074
133	0x3e243ee6	0.16039619
134	0xbd037737	-0.032096114
135	0x3d0fe97d	0.03513478
136	0x3b9b9c2f	0.004748843
137	0x3dd6a678	0.1048097
138	0x3db36565	0.08759574
139	0xbdb7cd88	-0.08974749
140	0x3cbd0d6a	0.023077685
141	0xbe0542f4	-0.13013822
142	0xbe02ec42	-0.12785438
143	0x3e39eb9d	0.18156286
144	0x3db9fb9d	0.090811945
145	0x3d1f99c7	0.038965013
146	0xbcbccfc7	-0.023048295
147	0x3d8dfb0e	0.069326505
148	0xbd9b762c	-0.07590899
149	0x3dcb7d27	0.0993598
150	0xbcba2b0a	-0.0227256
151	0xbe430519	-0.19044913
152	0xbdc3c6a9	-0.09559376
153	0xbe193850	-0.14962888
154	0xbe4292d8	-0.19001329
155	0xbe29965c	-0.16561264
156	0xbd9afa04	-0.07567218
157	0x3e0da8cc	0.13833922
158	0x3dd2a9ff	0.102863304
159	0x3e095a08	0.1341325
160	0xbdd14c32	-0.10219611
161	0x3e263bec	0.16233796
162	0xbce32004	-0.027725227
163	0xbd5c302d	-0.05375688
164	0x3d078f9f	0.033095952
165	0xbe17e5e1	-0.14833786
166	0x3cabdca9	0.020979242
167	0x3e0b3ed5	0.13598187
168	0xbd8acb97	-0.06777113
169	0x3d6e1607	0.058126476
170	0xbdba23ba	-0.090888456
171	0x3cb62dd0	0.022238642
172	0xbe001e62	-0.1251159
173	0x3e06b672	0.13155535
174	0x3e1822fb	0.14857094
175	0xbdcb7ee5	-0.099363126
176	0xbe2dd4fd	-0.1697578
177	0xbe0cb198	-0.13739622
178	0x3db69191	0.08914483
179	0x3df79051	0.12088073
180	0x3e235ad5	0.15952618
181	0xbdb6c3f7	-0.08924096
182	0x3e1ec626	0.15505275
183	0x3c02ac0d	0.00797559
184	0x3e1961c4	0.14978701
185	0xbdc1ce64	-0.09463194
186	0x3e07c08a	0.13257042
187	0xbdbf2988	-0.09334093
188	0xbe1595dc	-0.14607948
189	0x3db5c265	0.088749684
190	0x3de16847	0.110062174
191	0x3d2d17f3	0.042259168
192	0x3e5462bc	0.20740789
193	0x3e2f003e	0.17089936
194	0xbdff3f34	-0.12463227
195	0xbce03776	-0.027370196
196	0x3e190a40	0.14945316
197	0x3d0a44b9	0.033756945
198	0xbe34ff83	-0.17675595
199	0xbe2f542b	-0.17121951
200	0xbc52400e	-0.012832655
201	0xbcae1fe7	-0.021255447
202	0xbde0535d	-0.109534
203	0x3d233f09	0.039855037
204	0xbd7c458f	-0.061589774
205	0x3c73d752	0.014882879
206	0x3d8950ba	0.067048505
207	0xbddee8ff	-0.10884284
208	0xbdc163fa	-0.09442897
209	0x3dd5cb3f	0.10439157
210	0xbddffd3c	-0.109369725
211	0x3d8445e7	0.06458645
212	0x3dd1397e	0.10216044
213	0x3e2dbfd8	0.16967714
214	0xbcb3af6b	-0.021934232
215	0x3dbcf340	0.09226084
216	0xbcd4c418	-0.025972411
217	0x3d819574	0.06327334
218	0xbce1d3ce	-0.027566817
219	0xbdf76dcd	-0.1208149
220	0x3d9ea66b	0.077465855
221	0xbde038ee	-0.109483585
222	0x3e2c31a5	0.16815813
223	0x3e122c79	0.14274777
224	0x3d580a8e	0.05274444
225	0xbcbf2a9e	-0.023335751
226	0x3d8b18b6	0.067918226
227	0x3ce215ac	0.027598225
228	0x3d90f6c9	0.070783205
229	0xbc0a8710	-0.008455053
230	0x3e492096	0.19641337
231	0xbb4e210a	-0.0031452798
232	0xbe192d96	-0.14958796
233	0xbe40a570	-0.1881311
234	0x3dd497e8	0.10380536
235	0x3d875309	0.066076346
236	0x3c975911	0.018475087
237	0xbe0db40e	-0.13838217
238	0xbde7ed23	-0.11324527
239	0xbe3c388f	-0.1838095
240	0x3ce32558	0.027727768
241	0xbcadbebe	-0.021209117
242	0xbe23049d	-0.15919729
243	0x3d72563f	0.059164282
244	0xbe356677	-0.17714868
245	0xbd804cfb	-0.06264683
246	0xbdf9318c	-0.121676534
247	0xbe3a858b	-0.18215005
248	0xbd65d0a3	-0.056107175
249	0x3d4abd6b	0.04949705
250	0xbc97cc5a	-0.01853006
251	0x3c6a5734	0.014303017
252	0x3d84266b	0.0645264
253	0xbe0d5757	-0.13802849
254	0xbe30f848	-0.17282212
255	0x3e2ec7f7	0.17068468

conv_block_1.0.bias f4 [50]
0	0xbd8ef035	-0.069794096
1	0xbdf06e30	-0.117397666
2	0xbd79de93	-0.06100328
3	0x3bd2413e	0.006416469
4	0x3dad78e7	0.08470326
5	0xbd8a954f	-0.067667596
6	0xbe2ba903	-0.16763692
7	0x3e19a997	0.150061
8	0x3e013189	0.12616552
9	0xbe3f7e7f	-0.18700598
10	0x3e1a9e60	0.15099478
11	0xbd095373	-0.03352685
12	0x3dae0ead	0.08498893
13	0xbe13e47f	-0.14442633
14	0xbe2c4daa	-0.16826501
15	0xbc94c890	-0.018162042
16	0x3e0a1d83	0.1348782
17	0x3e1599e0	0.1460948
18	0x3d2d3814	0.04228981
19	0xbe506ba6	-0.20353565
20	0xbdaf6879	-0.085648485
21	0x3c440b3b	0.011965568
22	0xbe354794	-0.17703086
23	0x3e272fd6	0.16326842
24	0x3df68da0	0.120387316
25	0xbe02c250	-0.12769437
26	0x3dc5d8d3	0.096604966
27	0xbe41cd21	-0.18925907
28	0x3dac97c2	0.08427383
29	0xbe409787	-0.18807803
30	0x3e2bdf38	0.1678437
31	0x3db622ee	0.08893381
32	0xbde2776b	-0.110579334
33	0xbde64836	-0.11244242
34	0xbe471444	-0.19441324
35	0xbe030178	-0.12793529
36	0xbd2fda91	-0.04293305
37	0x3e3ee67b	0.18642609
38	0xbdfae484	-0.12250617
39	0x3dfa75fb	0.12229534
40	0xbe5032ae	-0.20331833
41	0x3d82a181	0.06378461
42	0x3d8c3d3a	0.068476155
43	0xbdcddff1	-0.10052479
44	0xbe4d8f15	-0.20074113
45	0x3da3cedd	0.079984404
46	0x3df60426	0.1201251
47	0xbdd8f233	-0.10593071
48	0xbd931aac	-0.07182822
49	0xbde06663	-0.10957029

conv_block_2.0.weight f4 [50, 50, 3, 3]
0	0x3c4e08f8	0.0125753805
1	0x3c3b1076	0.011417499
2	0x3cc3ec72	0.023916457
3	0x3b2de9fa	0.0026537166
4	0x3d06a44a	0.032871522
5	0xbcaa80e2	-0.02081341
6	0xbbd8507a	-0.0066013904
7	0xbc89b8e8	-0.016811803
8	0xbd3610d9	-0.04444966
9	0xbd3a78b9	-0.045525286
10	0x3c88443b	0.016634097
11	0x3c4f852b	0.012666027
12	0x3be2ef22	0.0069254795
13	0xbd1223b7	-0.03567859
14	0xbabe21e5	-0.0014505951
15	0x3c1ff54b	0.009763072
16	0x3c2c22a6	0.010506308
17	0x3c3f15b5	0.01166289
18	0xba5b1932	-0.00083579414
19	0xbd64bb49	-0.05584267
20	0xbcfded5e	-0.030996975
21	0xbca4fe51	-0.020140799
22	0xbd618c94	-0.055065706
23	0xbd0193c5	-0.031635065
24	0x3ca70e89	0.020392673
25	0xbcb44145	-0.02200378
26	0xbd4c5936	-0.049889766
27	0xbd55fe2b	-0.052244347
28	0xbc890ace	-0.016728785
29	0xbd079ad0	-0.033106625
30	0xbbc1667f	-0.005902111
31	0xbd053101	-0.032517437
32	0x3c3d0244	0.011536185
33	0x3ad48477	0.0016213794
34	0xbd14ac69	-0.036297236
35	0xbd46234b	-0.0483735
36	0x3c8c4248	0.01712145
37	0x3a3ac954	0.0007125337
38	0x3c32cd64	0.010913227
39	0x3bb215ab	0.005434712
40	0x3d0b4970	0.034005582
41	0x3d095cca	0.033535756
42	0xbd4d8f5c	-0.050185546
43	0x3cc29800	0.02375412
44	0xbcc1a6a2	-0.023639027
45	0xbbfe853c	-0.0077673476
46	0xbc5f3b79	-0.013625019
47	0xbc41eaf0	-0.011835799
48	0xbd3de2e5	-0.04635896
49	0xbd33b5d0	-0.04387456
50	0x3cae6952	0.021290455
51	0xbd4f045c	-0.050541267
52	0x3c33b9ec	0.01096962
53	0x3c60978f	0.013708009
54	0x3d2ca271	0.042147104
55	0x3ca3dc25	0.020002434
56	0xbd5b7eca	-0.053587712
57	0xbd4654fb	-0.048420887
58	0x3c738706	0.014863735
59	0x3c9c679f	0.01909238
60	0x3c577a3e	0.013151703
61	0x3cc7791c	0.024349742
62	0xb9f7b4d5	-0.00047246242
63	0xbc8cfd75	-0.017210701
64	0xbd01da8d	-0.031702567
65	0xbbd01db6	-0.006351198
66	0xbccdeaf1	-0.025136443
67	0xbd3b3145	-0.045701284
68	0x3ca8fd10	0.020628482
69	0xb9b5b6a0	-0.00034659076
70	0x3d18face	0.03734856
71	0xbc1d8b4c	-0.0096157305
72	0xbca64cfe	-0.020300385
73	0x3cae8d25	0.021307537
74	0xbd399685	-0.045309562
75	0xbd45805e	-0.048218124
76	0xbce762a3	-0.028245276
77	0xbce8635b	-0.028367689
78	0xbd021379	-0.03175685
79	0xbd30c38d	-0.04315524
80	0xb8f0d414	-0.000114835944
81	0xbced5980	-0.028973341
82	0xbd36eba3	-0.044658314
83	0xbd3b6b9f	-0.045756932
84	0xba763765	-0.00093924097
85	0xbd4cee2d	-0.05003183
86	0x3cffa3e3	0.031206077
87	0x3c8a4eb4	0.016883232
88	0x3c9359f7	0.017987235
89	0xbce069e9	-0.027394252
90	0xbcebe511	-0.02879575
91	0xbd156ceb	-0.036480825
92	0xbd068546	-0.032841943
93	0xbd1ebf88	-0.038756877
94	0x3cbde86b	0.023182115
95	0xbd44458a	-0.04791788
96	0xbbd1ad97	-0.0063988674
97	0x3ae43a8d	0.0017412469
98	0xbd4f4664	-0.05060424
99	0x3cf3dba8	0.029767826
100	0xbb86d7fa	-0.004115102
101	0xbb73530d	-0.003712836
102	0xbcde2a7a	-0.027119864
103	0xbb4b1450	-0.003098745
104	0xbab684fe	-0.0013925133
105	0xbc13fcc1	-0.009032429
106	0x3d05dc65	0.032680888
107	0xbc86721f	-0.016411839
108	0xbce6f6dc	-0.028193884
109	0xbc7ef902	-0.015562298
110	0xbd55f4f5	-0.052235562
111	0x3d1ddc05	0.038539905
112	0x3d091918	0.033471197
113	0xbcd58993	-0.026066577
114	0xbd366a86	-0.044535182
115	0x3d2a1ae5	0.041529555
116	0x3b8c7de0	0.0042874664
117	0xbcb992ad	-0.022652948
118	0x3c6a62ac	0.014305752
119	0x3c9e6d2b	0.019339165
120	0x3b9dc9d7	0.004815321
121	0xbc4d3c6e	-0.012526615
122	0xbb5935a2	-0.003314354
123	0x3c99cc99	0.018774318
124	0xbd0a026b	-0.033693712
125	0xbd2e690a	-0.04258064
126	0xbd320b9e	-0.04346811
127	0x3c18d284	0.009327535
128	0x3c73bd2b	0.014876644
129	0xbcb9fee6	-0.022704553
130	0xbcd96650	-0.026538044
131	0x395ffc61	0.00021360956
132	0xbc6fede5	-0.014644121
133	0xbd64074b	-0.055671018
134	0xbc471437	-0.012150816
135	0x3d01900d	0.03163152
136	0x3d1ac997	0.037789907
137	0xbc90e8b0	-0.017689079
138	0xbd13d3f9	-0.036090825
139	0x3ce8c3e1	0.028413715
140	0xbd526cc2	-0.05137325
141	0xbd383e81	-0.044981483
142	0x3d08e0cd	0.03341751
143	0x3d157763	0.03649081
144	0xbc6edfb0	-0.014579698
145	0x3cf9a87a	0.030475844
146	0xbd3905c7	-0.045171525
147	0x3cf6a501	0.030107977
148	0x3cc71ac3	0.024304753
149	0xbd3e2513	-0.046422075
150	0xbd042f25	-0.032271523
151	0xbcf7e2bc	-0.030259483
152	0x3d17793a	0.036980845
153	0xbd2418e8	-0.040062815
154	0x3cc5f577	0.024164898
155	0xbb86e6c8	-0.0041168667
156	0xbd1ff973	-0.039056253
157	0xbd3362e4	-0.04379548
158	0x3d2067cb	0.039161485
159	0x3c97fee7	0.018554164
160	0xbd0eadf6	-0.03483387
161	0xbd36a04c	-0.044586465
162	0xbd060372	-0.03271813
163	0xbc5e4a7a	-0.013567561
164	0x3cc65386	0.024209749
165	0xbccb2c97	-0.024801536
166	0xbce7c415	-0.028291741
167	0xbcbb6ff1	-0.022880526
168	0x3cfcd3cf	0.030862717
169	0x3b88b720	0.004172221
170	0x3c5310be	0.01288241
171	0xbc31ea67	-0.0108591085
172	0x3bd1742d	0.006392023
173	0xbd2aadce	-0.04166966
174	0x3b506868	0.0031800512
175	0x3ce280a4	0.027649231
176	0x3c84a2f4	0.016190983
177	0x3c88b36b	0.016687116
178	0xbcd430f9	-0.025902258
179	0x3cb5c45b	0.022188356
180	0xbc4da627	-0.012551821
181	0xbd4ced89	-0.05003122
182	0x3d2279cf	0.039666947
183	0xbd1149e0	-0.035470843
184	0xbcaa6009	-0.020797746
185	0x3c713399	0.0147217745
186	0x3bfe3d2a	0.007758756
187	0xbc7cdb22	-0.015433105
188	0xbc188987	-0.009310133
189	0xbc863cd3	-0.016386425
190	0x3d21acbd	0.039471377
191	0x3beff803	0.0073232665
192	0x3d21c41b	0.03949366
193	0x3b8e7ce0	0.0043483824
194	0xbd556acb	-0.0521038
195	0xbd0a205b	-0.033722263
196	0xbd2b3b2f	-0.04180449
197	0xbd3f1d59	-0.046658847
198	0xbd289643	-0.041158926
199	0xbd2e045d	-0.04248463
200	0xbd340a6c	-0.04395525
201	0x3b847591	0.0040423353
202	0x3d25f034	0.04051228
203	0x3cdde031	0.027084442
204	0x3b65dab4	0.0035072984
205	0x3cf1b954	0.029507317
206	0xbb18fa68	-0.0023342613
207	0xbd06334e	-0.03276377
208	0x3d00eef1	0.031477872
209	0xbcf53dbe	-0.029936668
210	0xbc0e94c3	-0.00870246
211	0xbd62b216	-0.055345617
212	0xbd660d98	-0.056165308
213	0xbce0fd57	-0.027464552
214	0x3d05f1e9	0.032701407
215	0x3cfd64f6	0.030931931
216	0xbd49f3e5	-0.04930486
217	0x3c7759d7	0.015097103
218	0xbb8bc9e0	-0.0042660087
219	0xbcfb2bea	-0.030660588
220	0x3ab9d536	0.0014177922
221	0x3cdf0302	0.027223114
222	0xbd19fdbd	-0.0375955
223	0x3c91be36	0.017790895
224	0xbc99b3c5	-0.018762479
225	0xbd6eb926	-0.05828204
226	0x3bbad196	0.005701254
227	0xbc4dc68b	-0.012559543
228	0x3c925e42	0.017867211
229	0x3cada7d7	0.021198196
230	0xbc727b8e	-0.014799966
231	0xbc0545b9	-0.008134299
232	0x3c4f1090	0.012638226
233	0xbc94078a	-0.018070001
234	0xbcc8e854	-0.024524845
235	0x3cfa8f5c	0.030585937
236	0xbca7c9fd	-0.020482058
237	0x3c9a11b8	0.018807277
238	0xbcf1c0af	-0.029510824
239	0x3b8e3ed0	0.004340984
240	0x3cbb2167	0.022843076
241	0xbb2ff245	-0.0026847285
242	0x3c3bd10a	0.011463413
243	0xbd3a01cf	-0.04541188
244	0xbc508096	-0.01272597
245	0x3d04ee11	0.0324536
246	0xbc8f0fd7	-0.017463608
247	0x3c11b8c4	0.008894149
248	0x3c69c676	0.014268508
249	0xbacba639	-0.0015537209
250	0xbd1c4db7	-0.038160052
251	0xbcfb9501	-0.030710699
252	0xbd463a60	-0.048395514
253	0x3ccad211	0.02475837
254	0x3c2e115e	0.010624258
255	0x3c0f5179	0.008747452

conv_block_2.0.bias f4 [50]
0	0x3cf32ff5	0.029685954
1	0xbcec3fb7	-0.028838975
2	0xbca60819	-0.020267533
3	0x3d07d0f9	0.033158276
4	0xbd0b92b5	-0.034075458
5	0x3c64749d	0.013943818
6	0xbc1bd46a	-0.009511093
7	0x3ca64532	0.020296667
8	0x3c8a0579	0.016848313
9	0xbb9f664e	-0.0048644906
10	0x3c9dd835	0.019268135
11	0x3c50efb4	0.012752462
12	0xbd28f4fa	-0.041249253
13	0xbc73099b	-0.014833833
14	0x3d0dbf42	0.034606226
15	0xbca380c3	-0.01995886
16	0xbcc7654d	-0.024340296
17	0xbd230d2a	-0.039807476
18	0x3bec1c9f	0.0072055603
19	0xbd02b011	-0.03190619
20	0xbca9acce	-0.020712283
21	0xbd28bdf9	-0.041196797
22	0x3d1a25ed	0.037633825
23	0xbcdda8dc	-0.027058057
24	0x3c0bfa6b	0.008543591
25	0xbd92b9f9	-0.07164378
26	0x3cd958d4	0.026531614
27	0x3c5cb675	0.0134712355
28	0xbc494043	-0.012283388
29	0xbc5a4a8a	-0.013323436
30	0x3d1fe94c	0.03904085
31	0xbd3c2dae	-0.045942
32	0xbc09a170	-0.008400306
33	0xbd42367e	-0.04741525
34	0xbd1ac04c	-0.037781045
35	0xbc9aa9b8	-0.018879756
36	0x3d2d101d	0.042251695
37	0x3d07bfd7	0.033141937
38	0x3c947b64	0.018125243
39	0xbb461230	-0.0030223243
40	0x3c797c28	0.015227355
41	0x3d003137	0.031296935
42	0x3cfb42a3	0.030671423
43	0xbd829540	-0.063761234
44	0xbd603b0d	-0.054743815
45	0xbbc89e4c	-0.006122386
46	0xbd160875	-0.03662916
47	0xbc888417	-0.016664548
48	0xbccef79c	-0.025264554
49	0x3bd2ab0d	0.0064290822

conv_block_3.0.weight f4 [50, 50, 3, 3]
0	0x3c0ac1e3	0.008469078
1	0xbd094d3b	-0.03352092
2	0xbcc9d1ba	-0.024636138
3	0xbceba70b	-0.028766176
4	0xbd28a3fc	-0.041172013
5	0xbca15e08	-0.019698158
6	0xbc8dea6f	-0.0173237
7	0xbd3126ab	-0.043249767
8	0xbc8915f0	-0.016734093
9	0xbc826ee9	-0.015922027
10	0xbcd98984	-0.02655483
11	0x3c177643	0.009244504
12	0xba9b07f9	-0.0011827938
13	0x3cb83c92	0.02248982
14	0xbcc36f69	-0.023856835
15	0x3b62d005	0.0034608853
16	0xbcb3a27a	-0.02192806
17	0x3c5b0138	0.01336699
18	0xbceb4f96	-0.028724473
19	0x3c07553d	0.0082600685
20	0xbd18908c	-0.037247226
21	0xbcaafae3	-0.020871585
22	0x3ca21a7a	0.019788016
23	0xbcbfca23	-0.023411816
24	0x3cbba236	0.022904497
25	0x3ccda681	0.02510381
26	0xbbf4de45	-0.0074727857
27	0xbcdba351	-0.026811274
28	0x3cb7acc7	0.022421254
29	0xbb331333	-0.0027324676
30	0xbc92abbb	-0.017904153
31	0x3cc7b93d	0.02438032
32	0x3d25ab9d	0.040446866
33	0x3b038c1d	0.0020072528
34	0x3d0450f9	0.032303784
35	0xbc8fde9e	-0.017562207
36	0xbcc42f69	-0.023948388
37	0x3aa297c5	0.001240485
38	0xbcd4adfd	-0.02596187
39	0x3bab5e65	0.0052297586
40	0xbd5c3119	-0.05375776
41	0xbcdc180f	-0.02686694
42	0x3ce42618	0.027850196
43	0x3c953375	0.018213013
44	0xbd3a9312	-0.045550413
45	0xbd40d3e8	-0.04707709
46	0xbbfab9c7	-0.007651541
47	0xbcd4c924	-0.025974818
48	0xbd57904e	-0.052627854
49	0x3b47697c	0.0030427864
50	0x3d042200	0.032258987
51	0x3c8a86e5	0.016910026
52	0xbd1ab720	-0.037772298
53	0xbd0473a3	-0.032336842
54	0xbd1a48f3	-0.037667226
55	0xbd5c2324	-0.05374445
56	0xbc973bca	-0.018461127
57	0x3bef9b8d	0.0073122443
58	0xbb6d7358	-0.003623208
59	0x3c8bb57f	0.017054318
60	0x3d11971b	0.035544496
61	0xbcbf2186	-0.023331415
62	0xbbe372d6	-0.0069411797
63	0xbc94bfe6	-0.01815791
64	0x3badbf91	0.0053023775
65	0xbbc27894	-0.005934784
66	0xbc5e462e	-0.013566537
67	0x3c1ba5b4	0.009499956
68	0xbd13e212	-0.03610427
69	0xbd0ea19a	-0.034822084
70	0xbd435e7a	-0.04769752
71	0x3c5bf41b	0.0134248985
72	0xbc85c724	-0.01633031
73	0x3d35dfa5	0.044402737
74	0xbb6b369a	-0.00358907
75	0x3d16376a	0.03667394
76	0xbd5fe247	-0.054659154
77	0xbd1d98de	-0.038475864
78	0xb935a69e	-0.00017323575
79	0x3cb477be	0.022029754
80	0xbcc73f95	-0.02432231
81	0xbc8da163	-0.01728887
82	0x3c513ffd	0.012771604
83	0xbd04419b	-0.03228913
84	0xbcfec8f8	-0.031101689
85	0xbc396773	-0.011316168
86	0x3c82323f	0.0158931
87	0xbd53eb71	-0.051738206
88	0xbca15d31	-0.019697757
89	0xbc72f810	-0.0148296505
90	0xbca0aa2b	-0.019612392
91	0xbd168679	-0.036749337
92	0xbccca2c0	-0.024979949
93	0xbca697c6	-0.020336043
94	0xbc729433	-0.014805841
95	0x3d036fad	0.032088924
96	0x3bebd88d	0.0071974457
97	0xbb4f4071	-0.0031624103
98	0xba6ce0d3	-0.0009036187
99	0x3c3014bf	0.010747134
100	0x3ba2ab24	0.004964249
101	0x3cc4d5dd	0.02402776
102	0x3c8224ad	0.015886629
103	0xbb8cca43	-0.0042965724
104	0x3cdff47f	0.027338265
105	0x3a881744	0.001038291
106	0x3d461b53	0.048365902
107	0x3c681042	0.014164032
108	0xbb94de3d	-0.0045430944
109	0xbbe7aae8	-0.007069934
110	0x3cc5b46d	0.024133885
111	0x3c2bcf69	0.010486462
112	0xbd201072	-0.039078183
113	0x3cb9e4d3	0.02269212
114	0x3cf8df4e	0.030379917
115	0x3b8be693	0.00426943
116	0xbc90195c	-0.017590217
117	0xbd331d8f	-0.04372936
118	0x3d2478c3	0.04015423
119	0xbcb84f6b	-0.022498807
120	0xbcecc962	-0.02890462
121	0x3c5f0bfd	0.013613698
122	0xbd46ac69	-0.048504267
123	0xbcbd98fd	-0.02314424
124	0xbd38c146	-0.045106195
125	0xbc9567a1	-0.01823789
126	0x3be64f4b	0.0070284954
127	0xbc4ce9fc	-0.012506958
128	0xbcb7e9dc	-0.02245038
129	0x3c9c065b	0.019046
130	0xbc19a799	-0.009378337
131	0xbc9f73d3	-0.019464409
132	0x3d1bd61b	0.038045984
133	0xbc813cd5	-0.015776077
134	0xbc4c9532	-0.012486743
135	0x3cdb57a1	0.026775183
136	0x3d1cd839	0.038292143
137	0x3c4f29d5	0.012644251
138	0xbccab0e0	-0.024742544
139	0xbc43fc65	-0.011962031
140	0x3cf0ec7f	0.029409645
141	0xbd1ac7d5	-0.03778823
142	0x3d08d686	0.03340771
143	0x3cb24de5	0.021765659
144	0xbd0aa4e8	-0.033848673
145	0xbcb76442	-0.022386674
146	0xbc7cab37	-0.01542168
147	0xbcd5d73e	-0.026103612
148	0xbd19e751	-0.037574116
149	0xb903bd31	-0.00012563613
150	0xba9f87f4	-0.0012171254
151	0x3c14b5a6	0.0090765115
152	0xbd11b65c	-0.035574302
153	0xbccb33ae	-0.024804916
154	0xbd08e164	-0.033418074
155	0x3ca93cb7	0.020658834
156	0x3d4493f0	0.047992647
157	0x3ca9bdcc	0.020720385
158	0x3d603ae0	0.054743648
159	0xbc0b9b7e	-0.008520959
160	0x3d23f7f2	0.04003138
161	0xbd2ff059	-0.042953823
162	0xbc1f6180	-0.009727836
163	0xbc987c2c	-0.018613897
164	0x3bfd3a28	0.00772788
165	0xbc7c6a4e	-0.015406204
166	0xbd27d0a3	-0.040970456
167	0xbc800dd3	-0.015631592
168	0xbce2a408	-0.027666107
169	0xbc761597	-0.015019796
170	0xbd0b5fcb	-0.034026902
171	0xbc1bd3c9	-0.009510943
172	0x3cc294df	0.023752628
173	0xbd6e3b55	-0.058162052
174	0x3bb98886	0.005662027
175	0x3aa98226	0.0012932464
176	0x3c20edf9	0.009822362
177	0xbc95f346	-0.018304478
178	0x3c5c0dc9	0.013431021
179	0x3c64c89b	0.013963844
180	0x3d00e3b5	0.03146716
181	0x3d14b07a	0.036301114
182	0x3c8d0cd1	0.017218025
183	0x3d1e200a	0.038604774
184	0xbc0546be	-0.008134542
185	0xbca57e28	-0.020201758
186	0xbd110be3	-0.035411727
187	0x3d238d8e	0.03992992
188	0xbcaccb86	-0.021093141
189	0xbd48a4fe	-0.048985474
190	0xbd0b6dd2	-0.03404028
191	0x3cde7132	0.027153585
192	0xbd8dd06d	-0.0692452
193	0xbc62aad4	-0.013834674
194	0xbc0f7108	-0.008754976
195	0x3c2b3311	0.010449187
196	0xbd306ddc	-0.04307352
197	0xbd01c1b0	-0.031678855
198	0xbc9663d6	-0.018358152
199	0x3c8afec3	0.016967183
200	0x3d263d19	0.04058561
201	0x3c16b75a	0.009198988
202	0xba8c1f01	-0.0010690392
203	0x3d070daa	0.032972015
204	0xbce2033a	-0.02758943
205	0x3d377d9c	0.044797525
206	0xbc5f0778	-0.0136126205
207	0xbb6ab7ea	-0.0035815188
208	0xbd33ef5d	-0.043929446
209	0x3cda0311	0.02661279
210	0x3cd584a2	0.02606422
211	0x3c784572	0.015153276
212	0xbcc93984	-0.024563558
213	0xbcf1dc30	-0.029523939
214	0xbcbc9aa9	-0.023022966
215	0x3d27d6bb	0.040976267
216	0xbbbc5283	-0.005747141
217	0xbd4b16d6	-0.049582325
218	0xbcce0ccf	-0.025152592
219	0xbbbcabc9	-0.005757783
220	0xbd2ada49	-0.04171208
221	0xbcb47cec	-0.022032224
222	0xba7ecd5a	-0.0009719931
223	0x3a812a07	0.0009854444
224	0x3cd1df5f	0.025619207
225	0xbd3e7964	-0.046502486
226	0x3cbea5e8	0.02327247
227	0x3c284d34	0.010272313
228	0x3cf077f6	0.029354077
229	0xbc07ec1c	-0.008296039
230	0x3a2d253c	0.00066049746
231	0xbd75f230	-0.06004542
232	0x3d134704	0.035956398
233	0xbc34a1ed	-0.011024934
234	0x3ce65210	0.028115302
235	0x3d118af7	0.035532918
236	0xbd22a0d4	-0.03970416
237	0xbcc7c031	-0.024383636
238	0x3b164b15	0.0022932936
239	0xbc599a37	-0.013281397
240	0xbc764f1c	-0.01503351
241	0xbcc57c63	-0.024107164
242	0xbd4ade88	-0.04952863
243	0xbc83696c	-0.01604148
244	0x3bd6bd92	0.0065533603
245	0xbd3882ac	-0.045046493
246	0xbd1f4d7c	-0.038892254
247	0xbd20a34e	-0.03921824
248	0xbaf2eb7f	-0.0018533318
249	0xbd1e4cba	-0.03864739
250	0x3bc557d6	0.0060224338
251	0x3d1cb207	0.038255718
252	0x3cb0eb36	0.021596532
253	0x3ca2ea79	0.019887196
254	0x3ac2f5aa	0.0014874239
255	0xbc7076bc	-0.014676746

conv_block_3.0.bias f4 [50]
0	0xbd1ad39b	-0.03779946
1	0x3d3fe049	0.046844754
2	0xbc756006	-0.014976507
3	0xbd006557	-0.031346645
4	0x3c6f2fe6	0.014598822
5	0xbcac681f	-0.021045743
6	0x3c20382d	0.009779018
7	0xbcafd019	-0.021461533
8	0x3d36fa74	0.044672444
9	0xbd7fe065	-0.06246986
10	0x3b96dd8b	0.0046040467
11	0x3c6762bf	0.014122664
12	0xbcf149e9	-0.029454188
13	0xbd3411c4	-0.043962255
14	0xbd702aa2	-0.058634408
15	0x3c8ad16b	0.016945561
16	0xbd443fd6	-0.04791244
17	0xbcab09c7	-0.020878686
18	0xbc943519	-0.018091725
19	0xbcaddbe7	-0.021223022
20	0x3cf3df18	0.029769465
21	0xbd82ccef	-0.06386744
22	0xbd814671	-0.06312264
23	0x3cfa575c	0.030559234
24	0x3cc677a4	0.024226971
25	0x3c96fb86	0.018430483
26	0x3d1b1187	0.037858512
27	0xbcaa8a4b	-0.020817896
28	0x3c88ffa2	0.016723458
29	0xbd1585e4	-0.03650464
30	0xbd5abf9d	-0.053405393
31	0xbb882029	-0.0041542244
32	0xbd15be21	-0.036558274
33	0x3c89a6ff	0.016803263
34	0x3d174361	0.036929492
35	0x3d210d9e	0.039319627
36	0xbd3514f5	-0.04420944
37	0xbd7fea48	-0.062479287
38	0x3d580ba8	0.05274549
39	0xbc8880b4	-0.016662933
40	0xbd091819	-0.033470247
41	0x3ce421a2	0.027848069
42	0x3bc196f7	0.005907889
43	0x3ca93a7d	0.020657772
44	0x3ca71915	0.020397702
45	0x3d636d83	0.05552436
46	0x3d2d5df5	0.042325933
47	0x3ccbff46	0.024901997
48	0xbd564c96	-0.05231913
49	0x3d2be9df	0.041971084

conv_block_3.2.weight f4 [50, 50, 3, 3]
0	0xbd284f4a	-0.04109124
1	0xbc4a4a7b	-0.012346859
2	0x3c56ff93	0.013122457
3	0xbc999beb	-0.018751105
4	0xbd504fe0	-0.050857425
5	0x3be57186	0.0070020584
6	0xbc8ebba3	-0.017423457
7	0x3bae20bf	0.005313962
8	0x3c06a9fe	0.00821924
9	0xbb608da1	-0.0034264105
10	0x3cd8578c	0.026408933
11	0x3b1d09a2	0.002396204
12	0xbc3ce9bf	-0.011530339
13	0xbd15101e	-0.036392324
14	0x3cf523e0	0.029924333
15	0x3c988ad5	0.018620888
16	0xbaabea5b	-0.0013116108
17	0x3c4d2111	0.012520091
18	0x3b7053b7	0.0036670992
19	0x3cab0546	0.020876538
20	0x3c92f927	0.01794107
21	0x3a252699	0.0006300002
22	0x3c62acca	0.013835141
23	0xbca30468	-0.019899562
24	0x3c05a07b	0.008155937
25	0x3d337ce4	0.043820277
26	0xbd2aad6f	-0.041669305
27	0x3d041a3b	0.032251578
28	0xbd12d114	-0.035843924
29	0x3c224d6c	0.009906154
30	0xbd0e7f45	-0.034789342
31	0xbc77e145	-0.015129392
32	0x3c02a536	0.00797396
33	0xbc0a47b3	-0.008439946
34	0xbd241997	-0.040063467
35	0xbd077bdc	-0.033077106
36	0x3caf554b	0.021402976
37	0x3c6697e5	0.0140743
38	0xbbacb08e	-0.0052700704
39	0x3cca5090	0.024696618
40	0xbcd8eb77	-0.026479466
41	0xbcce0735	-0.025149921
42	0xbd6156e9	-0.055014525
43	0xbcbdb5c6	-0.023157965
44	0xbd492576	-0.04910799
45	0xbd81a2eb	-0.06329902
46	0xbc9e7d2e	-0.0193468
47	0xbd650c8a	-0.05592016
48	0xbd2686c8	-0.04065588
49	0xbc9cbdb0	-0.019133419
50	0xbd74cf9f	-0.059768315
51	0x3c5cd051	0.013477401
52	0x3bb0cb78	0.005395349
53	0x3c09d73e	0.008413134
54	0xbd08eb9d	-0.033427823
55	0xbd584e80	-0.05280924
56	0x3b208dc4	0.0024498561
57	0x3ca4d70e	0.020122077
58	0x3d04940a	0.032367744
59	0x3b0d4e7b	0.002156167
60	0xbd49a284	-0.049227253
61	0xbc69a2a0	-0.014259964
62	0x3c267f52	0.010162191
63	0x3abef8c0	0.0014569983
64	0xbd5e1afe	-0.05422496
65	0xbc213821	-0.009840042
66	0x3c9a55de	0.018839773
67	0x3b3ccb56	0.002880772
68	0xbd2be4da	-0.041966297
69	0xbc882ceb	-0.016622981
70	0xbb107e49	-0.0022047928
71	0x3c85974d	0.016307497
72	0x3cc1b920	0.023647845
73	0xbd421e73	-0.04739232
74	0x3c6f225c	0.014595594
75	0x3c97a8ad	0.018513048
76	0x3d106ea6	0.035261773
77	0x3cb88cc5	0.022528062
78	0xbd2bef2b	-0.041976135
79	0xbcfdfcc8	-0.031004325
80	0x3adf9d29	0.0017060387
81	0xbbd69912	-0.006549009
82	0xbd597d8c	-0.053098246
83	0x3d0b4c14	0.0340081
84	0x3cc3d109	0.023903387
85	0xbd244a41	-0.040109877
86	0xbd51b280	-0.05119562
87	0xbbae035c	-0.005310459
88	0x3a264fcd	0.00063442887
89	0x39fc4f88	0.0004812444
90	0xbd0b509d	-0.034012426
91	0x3c0ba04c	0.0085221045
92	0xbc5eabb9	-0.013590747
93	0x3b83b584	0.004019441
94	0x3d0a6eef	0.0337972
95	0x3c21fb21	0.009886534
96	0xbd3fa2c9	-0.046786103
97	0xbd303b24	-0.04302515
98	0xbd19fc21	-0.037593964
99	0x3c06dc12	0.00823118
100	0x3d04e6fd	0.03244685
101	0x3d1f5278	0.038897008
102	0x3ccd67ea	0.025073964
103	0xbb922b80	-0.004460752
104	0xbc6e1b7e	-0.014532922
105	0xbd41323e	-0.047167055
106	0xbd33a9e2	-0.043863185
107	0xbcbdda45	-0.023175368
108	0x3d614710	0.05499941
109	0x3d2eea13	0.0427037
110	0x3d56c092	0.052429743
111	0x3d7ab840	0.06121087
112	0x3c66adfc	0.014079567
113	0xbc3ed5f1	-0.011647687
114	0x3d0728f4	0.03299804
115	0x3d23c151	0.039979283
116	0x3d76913f	0.06019711
117	0xbcd46dde	-0.025931295
118	0x3d102873	0.035194825
119	0x3d6af3e5	0.057361502
120	0x3d3add75	0.045621354
121	0xbcad6ded	-0.02117058
122	0xbd024b74	-0.03181024
123	0x3d256519	0.040379617
124	0xbc383c3e	-0.011244832
125	0xbc931af4	-0.017957188
126	0xbd1de961	-0.038552646
127	0xbd7e440a	-0.062076606
128	0xbd5a72b2	-0.05333204
129	0x3b864168	0.0040971525
130	0x3c1acc0c	0.009448063
131	0x3cd64749	0.026157038
132	0xbc4b7f4a	-0.012420485
133	0x3c13f7e8	0.009031273
134	0xbb772b50	-0.0037715025
135	0x3c9b831a	0.018983413
136	0x3cdc9b06	0.02692939
137	0x3d082394	0.033237055
138	0xbd0ff474	-0.035145238
139	0xbca7d88a	-0.020488996
140	0xbc6d13ef	-0.014470085
141	0x3c8334ee	0.01601645
142	0x3d0926b6	0.033484183
143	0x3c6a5dfa	0.014304632
144	0xbbd91847	-0.0066252085
145	0xbd14f398	-0.03636512
146	0xbc9692d2	-0.018380556
147	0x3c84d4a7	0.016214682
148	0xbca0565e	-0.019572433
149	0x3b63484f	0.003468055
150	0xbd906f2b	-0.070524536
151	0xbd402d12	-0.046917982
152	0xbd835083	-0.06411841
153	0xbb8ebb79	-0.0043558446
154	0xbb804318	-0.003914248
155	0xbd2f4f74	-0.04280038
156	0xbd224f7f	-0.039626595
157	0xbc513ea1	-0.01277128
158	0x3cd3ca68	0.02585335
159	0x3c201e96	0.009772917
160	0x3c840f26	0.016120505
161	0xbd234f82	-0.039870746
162	0xbb641af1	-0.0034806097
163	0x3d0a775b	0.033805232
164	0x3cb732d5	0.022363106
165	0xbc9c19de	-0.019055303
166	0x3ce31816	0.027721446
167	0x3d497de0	0.04919231
168	0x3d5d0609	0.053960834
169	0x3c8b9957	0.017040892
170	0xbc28c0be	-0.01029986
171	0x3c832095	0.016006747
172	0xbcbb6df0	-0.02287957
173	0x3c9e0397	0.019288821
174	0xbd04b29f	-0.03239691
175	0xbd4e1467	-0.050312426
176	0xbd5eb212	-0.05436904
177	0xbd541837	-0.051780906
178	0xbb992fee	-0.004674903
179	0x3c29c2e7	0.01036141
180	0xbd3575aa	-0.044301666
181	0xbcb15e2d	-0.021651352
182	0xbd5fe5b7	-0.054662433
183	0xbc6a7008	-0.014308937
184	0xbd3dce83	-0.046339523
185	0xbbb0e672	-0.005398565
186	0xbd94959c	-0.07255098
187	0xbd407b55	-0.04699262
188	0xbc0d7666	-0.008634185
189	0xbcf900a8	-0.03039582
190	0xbc812309	-0.015763776
191	0x39baec3c	0.00035652693
192	0x3c46b8c3	0.012129012
193	0x3b4d9cd5	0.0031373997
194	0xbc6711b8	-0.014103346
195	0x3cdac73a	0.026706327
196	0xbc2374db	-0.009976591
197	0x3be40060	0.0069580525
198	0x3cd48dab	0.025946459
199	0xbc2b0e32	-0.010440396
200	0x3cae9c37	0.021314723
201	0x3c9f51e8	0.019448236
202	0x3d4d8b63	0.050181758
203	0x3d2748ca	0.0408409
204	0xbcb0b1fd	-0.021569246
205	0xbc8848ff	-0.01663637
206	0x3c818dbe	0.015814658
207	0xb53ef700	-7.113995e-07
208	0xbd54910b	-0.051896136
209	0xbd6c654a	-0.057713784
210	0xbd375f86	-0.044768833
211	0xbd26b326	-0.040698193
212	0xbd109f5b	-0.035308223
213	0xb7e8a2ee	-2.7732425e-05
214	0xbd91eb85	-0.07125
215	0xbac36c76	-0.0014909643
216	0xbd489e27	-0.04897895
217	0xbbb27cce	-0.005447007
218	0xbd9bb97d	-0.076037385
219	0xbb949390	-0.0045341924
220	0xbd80c068	-0.062866986
221	0xbd220715	-0.039557535
222	0xbd85077f	-0.064955704
223	0xbd3c4363	-0.045962702
224	0xbda236c0	-0.07920599
225	0xbcf83414	-0.03029827
226	0xbd651ab4	-0.05593367
227	0xbccb1bb8	-0.02479349
228	0x3c54f3d7	0.012997589
229	0x3cefc598	0.029269025
230	0xbbaa7862	-0.005202339
231	0x3c988192	0.018616471
232	0xbd0cf7e2	-0.034416087
233	0xbd6cab95	-0.05778082
234	0xbcd65041	-0.026161315
235	0xbc7bf6f4	-0.015378702
236	0xbd5a0a6b	-0.05323259
237	0xbd00c71d	-0.03143989
238	0xbd4a8c51	-0.049450222
239	0xbd4395db	-0.047750335
240	0xbd036d81	-0.032086853
241	0xbcdacdae	-0.026709404
242	0xbd335cf8	-0.043789834
243	0xbd19f2bb	-0.037585
244	0x3d00db2e	0.031459026
245	0xbac797b9	-0.0015227712
246	0xbcd818bf	-0.026378987
247	0xbcec558a	-0.028849382
248	0x3ca4ecc8	0.020132437
249	0x3c7d8468	0.015473463
250	0xbb09f595	-0.002105092
251	0xbbb311fe	-0.0054647913
252	0x3c99a3d7	0.018754883
253	0xbd56a97f	-0.052407738
254	0xbd06ab0e	-0.032877974
255	0xbd55f87f	-0.052238937

conv_block_3.2.bias f4 [50]
0	0x3c618206	0.01376391
1	0xbd8006f4	-0.06251326
2	0xbda2f773	-0.079573534
3	0x3d973200	0.073825836
4	0x3ca5594d	0.020184183
5	0x3d8b9e3b	0.068172894
6	0xbd938dd3	-0.07204785
7	0xbcad3f42	-0.021148328
8	0xbd32d392	-0.0436588
9	0xbd5fb3e4	-0.054614916
10	0xbda14ac2	-0.07875587
11	0x3d7b4619	0.061346147
12	0x3c81b45e	0.015833076
13	0x3c33509c	0.010944512
14	0xbd60b545	-0.054860372
15	0xbd240a4b	-0.04004888
16	0xbd9ad2e2	-0.07559754
17	0xbc255f22	-0.010093482
18	0x3c7d7159	0.015468919
19	0xbc5c3ec7	-0.013442702
20	0x3d1fb055	0.038986523
21	0x3d73ef8f	0.059554633
22	0x3d4ed54e	0.050496392
23	0xbc954844	-0.018222935
24	0xbd745fa4	-0.059661523
25	0x3d628b2f	0.055308517
26	0xbd7abcb1	-0.061215106
27	0xbcc2a3b0	-0.023759693
28	0xbd98efb1	-0.074675925
29	0x3bddba2e	0.006766579
30	0xbd25eeb8	-0.040510863
31	0xbd07dc3a	-0.03316901
32	0xbbf45f7a	-0.0074576708
33	0xbbf77c25	-0.007552641
34	0xbc40f8f0	-0.011778101
35	0xbc7bf0ef	-0.015377267
36	0x3d53a4e9	0.051670942
37	0xbd819883	-0.063279174
38	0xbbb0d992	-0.00539703
39	0xbc74d5fe	-0.014943598
40	0x3c7d6cc3	0.015467825
41	0xbd5aef2a	-0.05345074
42	0xbcdecbbf	-0.027196763
43	0x3d6df76b	0.058097284
44	0xbd64d1be	-0.05586409
45	0xbcba2f97	-0.02272777
46	0x3bd7112a	0.0065633254
47	0xbd09b80d	-0.03362279
48	0xbda46058	-0.080261886
49	0xbba8bc15	-0.0051493743

classifier.1.weight f4 [3, 31250]
0	0x3bb48345	0.0055088126
1	0x3b264c81	0.002537519
2	0xbbca5e5b	-0.006175799
3	0xbc9d65c6	-0.019213568
4	0xbcf71944	-0.030163415
5	0xbcda99f9	-0.026684748
6	0xbca34d73	-0.019934392
7	0xbbe23344	-0.006903084
8	0xbbaf5d55	-0.005351702
9	0x3c521fc5	0.012824957
10	0xbc05473c	-0.008134659
11	0xbb2431a6	-0.0025054007
12	0x3c27b710	0.010236517
13	0x3badcbba	0.005303827
14	0x3bc6febf	0.0060728486
15	0xbbb0ceb1	-0.0053957333
16	0xbbdefa16	-0.006804715
17	0xbb898f1c	-0.004197968
18	0xba72587d	-0.0009244753
19	0xbc878234	-0.016541578
20	0xbcb2a848	-0.021808758
21	0xbc23a030	-0.009986922
22	0xbbe37136	-0.006940986
23	0x39601c02	0.00021372738
24	0xbc88b0da	-0.016685892
25	0x3b749780	0.0037321746
26	0xbbcffece	-0.0063475138
27	0xbca1d042	-0.019752625
28	0xbd10cd00	-0.035351753
29	0xbd32a1c8	-0.043611318
30	0xbc9d0a8e	-0.019170072
31	0x3a8df681	0.001083091
32	0x3af59e34	0.0018739165
33	0x3b1d2335	0.0023977284
34	0xbb4e3555	-0.0031464894
35	0xbb1493b0	-0.0022671036
36	0x3ba75809	0.00510693
37	0x3cc8b20f	0.024498967
38	0x3caaac12	0.020834003
39	0x3c1f0844	0.0097065605
40	0xbb81b07e	-0.003957807
41	0x3b55da17	0.0032631212
42	0x3c88c908	0.016697422
43	0xb9bb6c52	-0.00035748124
44	0xbc8bb05f	-0.017051874
45	0xbd51c7b1	-0.05121583
46	0xbd1f6634	-0.038915828
47	0xbd0a520d	-0.033769656
48	0xbcd35d1f	-0.02580124
49	0xbc98037b	-0.018556347
50	0xbc243a5e	-0.010023681
51	0xbcdf7f16	-0.027282279
52	0xbce93f0a	-0.028472442
53	0xbc57ea39	-0.013178402
54	0xbc73f15c	-0.0148890875
55	0x3c0a51d9	0.008442366
56	0x3c20e5b6	0.009820392
57	0x3be3052b	0.0069281063
58	0xbb159a00	-0.0022827387
59	0x3a9a99b1	0.0011795071
60	0x3a41404d	0.0007371947
61	0x3b07a256	0.0020696125
62	0x3c04e2a4	0.008110676
63	0x3c21f1a6	0.009884274
64	0x3cbd09ad	0.023075903
65	0x3cc99862	0.024608795
66	0x3ca16a83	0.019704109
67	0x3c145c54	0.009055216
68	0x3bdafeb6	0.006683196
69	0x3b51d410	0.0032017268
70	0xbcc31328	-0.023812845
71	0xbcea926a	-0.028634269
72	0xbd22c589	-0.039739165
73	0xbcf8b362	-0.030358974
74	0xbcea7659	-0.028620886
75	0xbc794d07	-0.015216119
76	0xbcf13713	-0.029445207
77	0xbcccf76e	-0.025020327
78	0xbca7adb9	-0.02046858
79	0xbc1d6ce4	-0.009608481
80	0x3b8e0616	0.0043342216
81	0x3a8ab2c1	0.0010581837
82	0x3c97649c	0.018480591
83	0xbba822ad	-0.005131087
84	0xba2e5d46	-0.0006651472
85	0x3c42542e	0.01186089
86	0x3c1e5ff7	0.0096664345
87	0x3c56726d	0.013088805
88	0x3c84dea7	0.01621945
89	0x3c24698d	0.010034931
90	0x3c770b2e	0.015078349
91	0x3c13100b	0.008975993
92	0x3cc3feed	0.023925269
93	0x3c67573a	0.0141199175
94	0x3bcf85f0	0.0063331053
95	0xbb87e0c7	-0.0041466686
96	0xbd177d59	-0.036984775
97	0xbd5deb37	-0.054179396
98	0xbd229d01	-0.03970051
99	0xbd016293	-0.03158815
100	0xbd21dac3	-0.039515268
101	0xbd4534e6	-0.04814615
102	0xbcca0587	-0.024660839
103	0xbc6d3cf9	-0.014479869
104	0xbb1a4099	-0.0023537038
105	0xbbcffe6d	-0.0063474686
106	0xba1dca62	-0.0006019232
107	0x3bc4145c	0.0059838723
108	0xbbbb15d5	-0.0057093897
109	0xbb90a77b	-0.0044144965
110	0x3b9ccd91	0.0047852476
111	0xbb93e0cc	-0.004512882
112	0xbb635450	-0.0034687705
113	0x3c3219c9	0.0108704055
114	0x3cb75985	0.022381553
115	0x3cc2f053	0.023796236
116	0x3cacc0a8	0.02108796
117	0x3c6282d1	0.013825134
118	0x3c585706	0.013204342
119	0x3c393a1a	0.011305356
120	0xbc0f653c	-0.0087521635
121	0xbc41f762	-0.011838766
122	0xbd22effe	-0.039779656
123	0xbd61b261	-0.055101756
124	0xbd832f1a	-0.06405468
125	0xbcec8511	-0.028872045
126	0xbce6a6c4	-0.028155692
127	0xbc4f640b	-0.012658129
128	0x3b88caf2	0.0041745836
129	0x3b286240	0.0025693327
130	0xbae64686	-0.0017568625
131	0xbc0614b0	-0.008183643
132	0x3b68d8fd	0.0035529726
133	0x3a59fba2	0.0008315389
134	0x39afc8da	0.00033528247
135	0x3b8c2689	0.0042770547
136	0xbc302134	-0.010750104
137	0xbcb296f9	-0.021800505
138	0xbc98bb64	-0.018644042
139	0xbc2e69ea	-0.010645369
140	0x3c63a60f	0.013894572
141	0x3b18a884	0.0023293803
142	0x3c0a67e7	0.008447624
143	0xbbe7fbb2	-0.007079565
144	0xbc16a144	-0.009193722
145	0xbc875fcd	-0.016525174
146	0xbc028292	-0.007965701
147	0xbccc4afb	-0.024938097
148	0xbd0199d3	-0.03164084
149	0xbd4f50e1	-0.05061424
150	0xbae61dec	-0.0017556525
151	0x3b1a1331	0.0023509974
152	0x3c0e0ecc	0.00867052
153	0x3ada05fa	0.0016633861
154	0x3b0b3eaa	0.0021247067
155	0xbc8a41d7	-0.016877098
156	0xbc44110c	-0.011966955
157	0xbc22f894	-0.009946961
158	0x3bbdfdaa	0.0057980614
159	0x3c31a5a5	0.010842715
160	0xbc1a5bd1	-0.009421305
161	0xbc4e8a51	-0.012606219
162	0xbc7066be	-0.014672933
163	0xbc719191	-0.014744178
164	0x3b7b26bc	0.0038322648
165	0x3c609b26	0.013708865
166	0xbb3869e2	-0.0028139283
167	0xbb5ed049	-0.003399866
168	0xbc641f45	-0.013923471
169	0xbcda6e66	-0.02666397
170	0xbc7b3958	-0.015333496
171	0xbc18c5ef	-0.009324535
172	0xbb32df04	-0.0027293572
173	0xbce7c51c	-0.028292231
174	0xbd2c26f0	-0.04202932
175	0x3b03caa7	0.0020109804
176	0x3baea780	0.005330026
177	0x3ca7e82c	0.02049645
178	0x3b531367	0.003220761
179	0xbc2294b9	-0.009923154
180	0xbc1099bb	-0.008825715
181	0xbc85873a	-0.016299833
182	0xbc60dbf5	-0.013724317
183	0x3bd040a5	0.0063553625
184	0x3c15e215	0.00914814
185	0xbbac437e	-0.005257069
186	0xbb36c5c5	-0.0027888876
187	0x3cbbdce7	0.022932483
188	0x3cfc0b8a	0.030767221
189	0x3b54c4c6	0.003246592
190	0x3ae51e94	0.0017480426
191	0x3a281e46	0.00064132025
192	0xbc682bab	-0.0141705675
193	0xbcabdcb2	-0.02097926
194	0xbca6e4ae	-0.020372715
195	0xbc6d4f94	-0.014484305
196	0xbcce1846	-0.025158059
197	0xbccd3e1a	-0.025054026
198	0xbc26cc3a	-0.010180527
199	0xbc99c64d	-0.018771315
200	0x3a78ed06	0.00094957685
201	0x3c908565	0.017641732
202	0x3c62319a	0.013805771
203	0x3bcd8c35	0.0062728175
204	0xbbe86d57	-0.0070931125
205	0xbc18641a	-0.00930121
206	0xbc01cc23	-0.007922205
207	0xbc0e9cfa	-0.008704418
208	0x3bb173f1	0.0054154326
209	0x3aeb716f	0.0017962883
210	0xbc71f178	-0.014767043
211	0x3b88b06e	0.0041714227
212	0x3d0be9e3	0.0341586
213	0x3d041bff	0.03225326
214	0x3b8dec5f	0.004331156
215	0xbaab3cf8	-0.0013064435
216	0xbb8e0bcb	-0.004334902
217	0xbc816cab	-0.015798887
218	0xbceaef76	-0.028678637
219	0x3abbc1a2	0.0014324675
220	0x39b1ffc0	0.0003395062
221	0xbc6f56f0	-0.01460813
222	0xbcb08766	-0.021548938
223	0xbbe6b4c0	-0.00704059
224	0xbb31b958	-0.002711853
225	0x3c1f422a	0.009720365
226	0x3cd39a08	0.025830284
227	0x3c536bdc	0.012904134
228	0xba41defc	-0.0007395593
229	0xbc0f10cb	-0.008732031
230	0xba9cc7f6	-0.0011961448
231	0x3a62d23e	0.00086525443
232	0xbc6d550a	-0.014485607
233	0xbc1b9319	-0.00949552
234	0xbc17c42a	-0.009263078
235	0xbc3b3b23	-0.0114276735
236	0x3c2eb104	0.010662321
237	0x3c6f53ad	0.014607352
238	0x3c921705	0.017833242
239	0x3b9645d9	0.004585963
240	0x3b346cac	0.0027530594
241	0xbb9517ea	-0.00454997
242	0xbb955694	-0.00455744
243	0xbcde91e1	-0.02716917
244	0xbbc5b918	-0.006034028
245	0x3c030d78	0.007998817
246	0xbb0070b1	-0.001959842
247	0xbc549b0a	-0.012976417
248	0xbc89a90a	-0.016804237
249	0x3c011c1d	0.007880238
250	0x3c8a5786	0.016887438
251	0x3cbe0067	0.023193551
252	0x3c763585	0.0150274085
253	0xbc052257	-0.008125863
254	0xbcb363bd	-0.021898145
255	0xbc5925be	-0.013253627

classifier.1.bias f4 [3]
0	0x3caa5833	0.02079401
1	0x3b0b4511	0.0021250884
2	0xbc9b7ea7	-0.018981291
