6-going_modular/models/script_mode.pth (torch, 91397 bytes, 10 tensors)

conv_block_1.0.weight f4 [10, 3, 3, 3]
0	0x3d589454	0.05287583
1	0x3db3d8c8	0.08781582
2	0x3e2cd6a9	0.16878761
3	0xbd2e0bb2	-0.042491622
4	0x3e29c30d	0.16578312
5	0x3e342439	0.17591943
6	0x3dfe8e35	0.124294676
7	0xbe3015b5	-0.1719578
8	0x3dfecaee	0.124410495
9	0xbe2eb8b1	-0.17062642
10	0x3df326f3	0.11872663
11	0xbe1ebc60	-0.15501547
12	0xbd19fdae	-0.037595443
13	0x3e3fb726	0.1872221
14	0xbd4bdfab	-0.049773853
15	0xbe2f18bf	-0.17099284
16	0xbcece52a	-0.028917868
17	0x3e2ae961	0.1669059
18	0xbc8aa76d	-0.016925538
19	0xbe296380	-0.16541862
20	0x3d532512	0.051549025
21	0x3d82a240	0.06378603
22	0xbd87b9e0	-0.0662725
23	0xbccd383f	-0.025051234
24	0xbde75d17	-0.11297052
25	0xbd61718f	-0.05503994
26	0xbe150457	-0.14552437
27	0x3e235d2e	0.15953514
28	0x3e2b71cb	0.16742627
29	0xbe22469f	-0.15847252
30	0x3dfbc1f2	0.122928515
31	0x3e084888	0.13308918
32	0xbcfeb4b7	-0.03109203
33	0xbdc47e2d	-0.095943786
34	0xbdf1a37e	-0.11798762
35	0xbe1ba26a	-0.15198675
36	0xbc163744	-0.00916845
37	0x3e368c90	0.17827058
38	0x3dfcc614	0.12342468
39	0xbd0de551	-0.03464252
40	0xbd7813d9	-0.060565803
41	0xbc86349c	-0.016382508
42	0xbe47e4fa	-0.19520941
43	0x3be00e74	0.0068376604
44	0xbcee6c77	-0.029104454
45	0x3e068c8f	0.13139556
46	0xbd952eff	-0.072843544
47	0xbdd933e7	-0.10605603
48	0xbe15672b	-0.14590137
49	0x3e3821dc	0.17981666
50	0xbdbc99c3	-0.09209015
51	0x3d77ed88	0.06052926
52	0xbdfcf2b0	-0.123509765
53	0x3e197478	0.14985836
54	0x3c5cd818	0.013479255
55	0xbddbe05d	-0.10736153
56	0x3e0a8c9b	0.13530199
57	0x3e0bbcc6	0.1364623
58	0xbde0ac28	-0.10970336
59	0x3d995820	0.07487512
60	0xbb974d7a	-0.00461739
61	0x3d255545	0.040364522
62	0xbdde1f2c	-0.10845789
63	0x3e3c4d60	0.18388891
64	0x3d5f5af6	0.054530106
65	0x3df66d33	0.12032547
66	0x3d73a924	0.059487477
67	0x3e29ce6b	0.16582648
68	0x3e131b89	0.14365973
69	0xbdba43fa	-0.09094997
70	0xbe01f15a	-0.12689725
71	0xbc873cde	-0.016508516
72	0xbd9a8d10	-0.07546437
73	0xbd7de831	-0.061989013
74	0x3c12290e	0.008920921
75	0x3da04715	0.07826058
76	0xbdeeb304	-0.11655238
77	0x3caf2876	0.021381598
78	0x3c551fea	0.013008097
79	0xbe0aae59	-0.13543071
80	0x3e1a74ab	0.15083568
81	0x3e0b867a	0.13625517
82	0xbe09c80e	-0.13455221
83	0x3e154a13	0.14579038
84	0xbd4ce1a7	-0.050019886
85	0xbde7c20f	-0.113163106
86	0x3dfc0406	0.12305455
87	0x3c30d2c8	0.010792442
88	0x3d54661c	0.05185519
89	0xbdb18629	-0.08668167
90	0xbc96bf2f	-0.01840171
91	0xbe0ae47e	-0.13563725
92	0x3d406586	0.04697182
93	0xbe049b9c	-0.12949985
94	0x3e1f6264	0.15564877
95	0x3d413a89	0.047174964
96	0x3d0c1a7a	0.034204938
97	0xbe40ed91	-0.18840624
98	0xbd6a1a3f	-0.057153936
99	0x3d91af3c	0.071135014
100	0x3dfe11ae	0.12405716
101	0xbdf1bc0f	-0.118034475
102	0xbe0b9b96	-0.1363357
103	0xbdfda078	-0.123841226
104	0xbd0ce32f	-0.034396347
105	0xbe1148ae	-0.14187881
106	0x3d1a350a	0.03764824
107	0xbe42cf2d	-0.19024344
108	0xbdee924b	-0.11648997
109	0x3b0ca0a1	0.0021458047
110	0xbd3678fb	-0.04454897
111	0xbe15b63e	-0.14620301
112	0xbde12f0e	-0.10995303
113	0x3de24961	0.11049152
114	0x3e15b6f5	0.14620574
115	0x3e229011	0.1587527
116	0xbe2da4d2	-0.16957405
117	0xbe451ea3	-0.19249968
118	0x3d1d575d	0.038413394
119	0xbdcbd133	-0.09952011
120	0x3e40b4c7	0.18818961
121	0xbe0480e7	-0.12939797
122	0xbd498ad9	-0.04920468
123	0x3d7dc951	0.06195957
124	0x3d0a9578	0.03383395
125	0xbb466d7f	-0.0030277667
126	0x3e2f7ae1	0.17136718
127	0xbde260a5	-0.1105359
128	0x3caeafe1	0.0213241
129	0x3e2aa1a7	0.16663228
130	0xbdbdbf7c	-0.09265038
131	0xbe0619df	-0.13095807
132	0xbda3b28e	-0.07993041
133	0xbe0edbaf	-0.1395099
134	0x3e2020ac	0.15637463
135	0x38ebf2e8	0.00011250918
136	0xbe3e21f0	-0.18567634
137	0xbd3baa16	-0.045816503
138	0xbde6fb7b	-0.11278435
139	0xbda17315	-0.07883278
140	0x3d888966	0.06666832
141	0xbe22ee5a	-0.15911236
142	0xbe138cc6	-0.1440917
143	0x3d969ccc	0.073541254
144	0x3e1048e9	0.14090313
145	0xbdfa25fb	-0.122142754
146	0x3e33f316	0.17573199
147	0xbe2686b0	-0.16262317
148	0x3e209a49	0.15683855
149	0xbe26f87d	-0.16305728
150	0xbddf1098	-0.10891837
151	0xbd05eb25	-0.032694954
152	0xbdf0f812	-0.11766066
153	0x3d77da6c	0.060511038
154	0x3dfe2211	0.124088414
155	0xbd493df3	-0.049131345
156	0x3df86caf	0.12130105
157	0xbe2597c6	-0.16171178
158	0xbd075b08	-0.0330458
159	0xbcc59dcf	-0.0241231
160	0x3de0118f	0.10940849
161	0xbd434662	-0.047674544
162	0xbe3bd535	-0.18343051
163	0xbd44564a	-0.047933854
164	0xbd1ac14f	-0.03778201
165	0xbe294146	-0.16528806
166	0x3d5fb668	0.054617316
167	0x3da8cb91	0.08241952
168	0xba372342	-0.000698615
169	0xbe40bcd7	-0.18822037
170	0xbd4daa24	-0.050211087
171	0xbe1cd516	-0.15315661
172	0xbe344dd3	-0.17607813
173	0xbe0e40fc	-0.13891977
174	0xbe2b7d5e	-0.16747043
175	0xbd728f11	-0.05921847
176	0xbd234c14	-0.039867476
177	0xbe220ba7	-0.15824758
178	0xbd7486c3	-0.05969883
179	0x3da3feb4	0.08007565
180	0x3dcfccea	0.10146506
181	0x3e3a86cd	0.18215485
182	0x3de564b5	0.11200849
183	0xbe3a179d	-0.1817307
184	0x3e18e9f4	0.14932996
185	0x3ddcc15c	0.10779068
186	0xbd1990a8	-0.03749147
187	0xbd2027d5	-0.039100487
188	0xbe2db283	-0.16962628
189	0xbddc4e58	-0.107571304
190	0xbddd70da	-0.1081254
191	0xbe23589a	-0.15951768
192	0x3de3db7b	0.11125847
193	0x3cd3b120	0.025841296
194	0x3e01ee8e	0.12688658
195	0x3e02fb54	0.12791187
196	0xbdf5455d	-0.119761206
197	0xbb54cac1	-0.0032469484
198	0x3daf04df	0.08545851
199	0x3dcb3869	0.09922869
200	0x3dd67d7c	0.10473153
201	0xbcf44483	-0.029817825
202	0x3db71bf4	0.089408785
203	0x3ddc7f8f	0.10766517
204	0x3e3c2c05	0.18376167
205	0xbceeed4d	-0.029165888
206	0x3dd7bd7e	0.1053419
207	0xbd5f3649	-0.05449513
208	0xbd4675ca	-0.048452176
209	0x3b8bac84	0.004262509
210	0x3e04bb98	0.12962186
211	0x3d732b8c	0.0593677
212	0x3e23e455	0.1600507
213	0xbdb1a57c	-0.08674142
214	0x3dc54acf	0.09633409
215	0x3e31e471	0.173723
216	0x3e0ae834	0.13565141
217	0x3cddbf9d	0.027068907
218	0x3e24c559	0.16090907
219	0xbdea0d85	-0.1142836
220	0xbcf76e91	-0.03020409
221	0xbd0ea3e9	-0.034824286
222	0xbe0184a5	-0.12648256
223	0x3d9b475c	0.0758197
224	0x3d9e40e5	0.077272214
225	0x3e0b9830	0.13632274
226	0x3d8645e8	0.06556302
227	0x3de8f8c8	0.11375576
228	0x3db6204a	0.088928774
229	0xbe025f28	-0.12731612
230	0x3e06dc1e	0.13169906
231	0x3e3b3f4e	0.18285868
232	0xbe273975	-0.16330512
233	0x3c459723	0.01205996
234	0x3e0d7813	0.13815336
235	0x3d8409a1	0.06447149
236	0xbe15a71a	-0.14614525
237	0x3c9bb614	0.01900772
238	0x3df01cae	0.1172422
239	0xbdb2c27b	-0.087285005
240	0xbd8ea552	-0.06965126
241	0x3ceca004	0.028884895
242	0xbd402ad5	-0.046915848
243	0x3e25aac4	0.16178423
244	0x3df6f099	0.12057609
245	0x3d5fdcc3	0.054653894
246	0x3e295814	0.16537505
247	0x3e1e4987	0.15457736
248	0xbdc92f45	-0.09823469
249	0x3df61ad3	0.12016835
250	0xbdeef4a8	-0.11667758
251	0xbbcca07c	-0.006244717
252	0xbd2a979f	-0.041648503
253	0x3cb2d08b	0.021827957
254	0x3dff0856	0.12452762
255	0x3e2b80a2	0.16748288

conv_block_1.0.bias f4 [10]
0	0x3e11dcfe	0.14244458
1	0x3d976745	0.07392744
2	0xbdcb6692	-0.09931673
3	0x3e2daf39	0.16961373
4	0xbd876b45	-0.06612257
5	0xbd2ecc35	-0.042675216
6	0x3d8eab17	0.069662265
7	0x3dd8b235	0.10580865
8	0x3c91fab7	0.017819745
9	0xbe0a3819	-0.13497962

conv_block_2.0.weight f4 [10, 10, 3, 3]
0	0xbd2acf3e	-0.041701548
1	0x3d55fd77	0.052243676
2	0xbd8d5ff7	-0.069030695
3	0xbd45bb8b	-0.048274558
4	0xbc829b90	-0.015943319
5	0xbcd218fe	-0.025646683
6	0x3d8b6fab	0.06808408
7	0xbd8a16b1	-0.06742609
8	0x3d8a091e	0.0674002
9	0xbd8b8b94	-0.06813732
10	0xbd68f8c1	-0.056877855
11	0xbd0d6ac9	-0.034525666
12	0xbd1989a1	-0.03748477
13	0xbca4ec07	-0.020132078
14	0xbd698eef	-0.057021078
15	0x3db18082	0.08667089
16	0x3d2a61ff	0.041597363
17	0x3d4e328b	0.05034117
18	0xbdd53b1c	-0.10411665
19	0x3dbaf5e9	0.09128935
20	0x3c2cdecf	0.010551169
21	0x3d8e55c7	0.069499545
22	0x3db92bfc	0.090415925
23	0xbdae6f2c	-0.08517298
24	0x3c56b39c	0.013104346
25	0xbca77fa1	-0.0204466
26	0x3da367d0	0.07978785
27	0xbda35ea6	-0.07977037
28	0x3d68c597	0.05682906
29	0x3c110291	0.00885071
30	0x3dcbe306	0.09955411
31	0xbdd215a6	-0.10258035
32	0xbd40c486	-0.04706242
33	0x3db25974	0.08708468
34	0x3d4b47b2	0.04962892
35	0xbd450a9e	-0.04810583
36	0x3d9ef4c8	0.07761532
37	0xbcfe1847	-0.031017436
38	0x3da65cf3	0.081231974
39	0xbdccef63	-0.10006597
40	0x3d9af572	0.07566346
41	0x3da6832f	0.0813049
42	0xbd8c1dac	-0.06841597
43	0xbd83dacc	-0.064382166
44	0x3d1e4210	0.03863722
45	0xbd0df5ea	-0.03465835
46	0xbc1502ea	-0.009094933
47	0x3dcd32f6	0.10019486
48	0x3d4736be	0.04863619
49	0xbd16c2ac	-0.036806747
50	0x3dc7aa8e	0.097493276
51	0x3dc55083	0.09634497
52	0xbd3ff339	-0.046862815
53	0x3d1fdf13	0.0390311
54	0x3dc4668a	0.0958987
55	0x3b616e1d	0.0034397908
56	0x3d480256	0.048830353
57	0x3d52d58d	0.05147319
58	0x3d2aea5a	0.0417274
59	0x3ba167bd	0.0049256966
60	0xbd8b88f6	-0.068132326
61	0x3d42f890	0.04760033
62	0x3c5b425f	0.013382523
63	0xbd8fc60d	-0.07020197
64	0xbd26dcc9	-0.0407379
65	0x3bf67291	0.0075209816
66	0x3d21eec9	0.039534364
67	0x3d7cea89	0.061747108
68	0xbd9fd758	-0.078047454
69	0x3d40bf8d	0.047057677
70	0xbb976953	-0.00462071
71	0x3d1c9a89	0.038233314
72	0xbbdf5238	-0.006815221
73	0xbd5bdbc9	-0.0536764
74	0x3dc84fcc	0.09780845
75	0x3bf226fa	0.0073899003
76	0x3d223a9c	0.039606676
77	0x3d10aa49	0.035318647
78	0x3bb25a7a	0.0054429146
79	0x3d82d455	0.06388155
80	0x3da129e6	0.078693196
81	0x3ba5c15c	0.0050584506
82	0xbd9f33a1	-0.07773519
83	0xbd352092	-0.044220515
84	0xbdc33a26	-0.09532575
85	0xbd518d23	-0.05115999
86	0xbda5701b	-0.08078023
87	0xbd7d43da	-0.061832286
88	0xbd702aef	-0.058634695
89	0xbdb56bee	-0.088584766
90	0xbd88a3b4	-0.06671849
91	0x3a1a0151	0.000587483
92	0x3d25ae94	0.040449694
93	0x3d8aab22	0.06770922
94	0x3cf731ff	0.030175207
95	0x3ce196b5	0.027537683
96	0xbd6caa7d	-0.057779778
97	0x3c8deade	0.017323907
98	0xbd7bfde8	-0.06152144
99	0xbdaed980	-0.085375786
100	0x3dc08615	0.09400574
101	0x3c5fecd5	0.013667305
102	0xbd49729d	-0.04918157
103	0x3bd9249f	0.00662668
104	0x3da8860f	0.08228695
105	0xbd5990ab	-0.05311648
106	0x3d569786	0.052390598
107	0xbd81b3a7	-0.06333094
108	0x3d63d21a	0.05562029
109	0x3c6b0b37	0.014345936
110	0x3c39cf20	0.011340886
111	0x3d719cbc	0.058987364
112	0xbc133eaf	-0.008987113
113	0x3ce2d906	0.027691375
114	0xbc6165eb	-0.013757209
115	0xbc155f8e	-0.00911702
116	0x3c063dc6	0.008193439
117	0x3dbfa6a8	0.09357959
118	0x3d2860e0	0.041108012
119	0x3d902b74	0.07039538
120	0xbd00a889	-0.031410728
121	0x3c125652	0.008931713
122	0xbd246a1d	-0.04014026
123	0xbd924030	-0.07141149
124	0xbd9d991d	-0.0769522
125	0xbdc58d76	-0.09646122
126	0x3d78a88f	0.060707625
127	0x3d3be034	0.045868114
128	0x3da422fd	0.08014486
129	0x3bb60607	0.0055549177
130	0x397a5178	0.00023872207
131	0xbd49209a	-0.049103357
132	0x3dc569e6	0.09639339
133	0x3a2119e1	0.0006145519
134	0xbd0486f1	-0.032355253
135	0x3b8f7f9a	0.004379225
136	0xbd98de41	-0.074642666
137	0x3d21960e	0.039449744
138	0x3d168ded	0.036756445
139	0x3cb2750c	0.021784328
140	0xbd285a34	-0.04110165
141	0x3def5e74	0.116879374
142	0xbda9e4e1	-0.08295608
143	0x3d2975ad	0.04137199
144	0xbd2bc384	-0.041934505
145	0xbd3290f7	-0.04359528
146	0x3dcb7c82	0.09935857
147	0x3d94bbac	0.07262358
148	0x3dacf285	0.084446944
149	0xbd2cede8	-0.042219073
150	0x3dde63b6	0.10858862
151	0x3d187cef	0.03722852
152	0x3d1efc8c	0.038815066
153	0x3d6283d2	0.055301495
154	0x3dcc026f	0.09961402
155	0xbd5d42d6	-0.054018818
156	0xbc8ae95a	-0.016956974
157	0xbdbd3e32	-0.092403784
158	0xbbdf7c88	-0.006820265
159	0xbc171127	-0.009220398
160	0x3dd0c370	0.10193527
161	0x3c7f7acd	0.015593243
162	0xbca84b8c	-0.020543836
163	0x3c6fd01f	0.014637022
164	0xbdc3ad68	-0.09554559
165	0x3d53d1b7	0.05171367
166	0xbd5178d8	-0.051140636
167	0x3da7bc94	0.08190265
168	0x3d9a10c3	0.07522728
169	0x3d22c42a	0.039737858
170	0xbd1724bf	-0.03690028
171	0xbd99368b	-0.07481106
172	0xbdb310cf	-0.0874344
173	0x3db2eac4	0.08736184
174	0x3bae9aad	0.0053284974
175	0x3d77622e	0.060396366
176	0x3d0bd0a6	0.03413453
177	0x3daf6408	0.08564001
178	0x3d77cd98	0.060498804
179	0xbc7b9ae5	-0.015356754
180	0xbd920b13	-0.071310185
181	0x3bf2ce1e	0.007409825
182	0xbd005d90	-0.03133923
183	0x3d1565ea	0.036474146
184	0x3dd55bfb	0.104179345
185	0x3ca2fc3a	0.019895662
186	0x3c36bc96	0.011153361
187	0x3d861d3d	0.065485455
188	0x3db78869	0.08961565
189	0xbc3a25e9	-0.011361578
190	0x3bcc63a5	0.0062374645
191	0xbd85c93f	-0.06532525
192	0x3c504d74	0.012713779
193	0xbdb988fe	-0.09059332
194	0xbd91d79b	-0.071212016
195	0xbda22893	-0.07917895
196	0xbd7ab865	-0.06121101
197	0x3ce46f07	0.027884973
198	0xbaefe9e5	-0.0018303959
199	0xbd8b9691	-0.06815828
200	0xbd9e066c	-0.077160686
201	0x3dab222f	0.083561294
202	0xbd774a01	-0.06037331
203	0xbd35cfd4	-0.044387653
204	0xbda7bbab	-0.08190092
205	0x3dd62f19	0.10458202
206	0x3c00699c	0.007837679
207	0xbd938df1	-0.072048075
208	0x3cff8771	0.031192513
209	0xbd4f86cc	-0.05066566
210	0x3d852a3a	0.06502195
211	0x3dde297b	0.108477555
212	0x3d11fbd3	0.03564055
213	0x3cfb814b	0.0307013
214	0x3a0ee2ca	0.00054506643
215	0x3c6e53c2	0.014546337
216	0x3db6f71f	0.08933853
217	0x3d502e28	0.050825268
218	0xbdbf8686	-0.0935183
219	0xbdbb2249	-0.09137399
220	0x3d891d3b	0.066950284
221	0x3c85aebd	0.016318673
222	0xbb8bf8b1	-0.0042715897
223	0xbbb938f0	-0.0056525394
224	0xbda42776	-0.08015339
225	0xbd92facd	-0.07176743
226	0xbca70ca6	-0.020391773
227	0xbd996ee2	-0.07491852
228	0x3d6323af	0.055453952
229	0xbdda8e28	-0.106716454
230	0xbdc85cb1	-0.097833045
231	0xbd58d375	-0.052936036
232	0xbdd512d6	-0.10403983
233	0xbd14add2	-0.03629858
234	0xbd399812	-0.04531104
235	0x3c8fb332	0.017541502
236	0x3af963f6	0.0019026983
237	0xbd9cc617	-0.0765497
238	0x3db21533	0.0869545
239	0xbc6b6ede	-0.0143696945
240	0xbd6df5c6	-0.058095716
241	0xbc92b08b	-0.017906448
242	0xbd651c21	-0.05593503
243	0xbd976583	-0.07392409
244	0xbdbd797f	-0.09251689
245	0x3da6ebd6	0.08150451
246	0xbd2f58b4	-0.042809203
247	0x3c8a8213	0.016907727
248	0x3d54bf1c	0.05194007
249	0xbd95e97a	-0.07319923
250	0x3d9dd51d	0.07706664
251	0xbd611c27	-0.05495849
252	0xbc9f86ab	-0.019473394
253	0xbd5a777c	-0.053336605
254	0x3d33f1d5	0.0439318
255	0x3dd48ee8	0.1037882

conv_block_2.0.bias f4 [10]
0	0xbdc6340e	-0.096778974
1	0x3d4ba4fb	0.049717885
2	0x3dafb65f	0.085797064
3	0xbd5b6eb6	-0.05357238
4	0x3dc834ef	0.09775721
5	0x3d745a84	0.059656635
6	0xbd2239d1	-0.03960592
7	0x3bee29ce	0.007268167
8	0x3c921ba8	0.017835453
9	0xbd2293a9	-0.0396916

conv_block_3.0.weight f4 [10, 10, 3, 3]
0	0xbd20912b	-0.039200943
1	0x3d355b72	0.044276662
2	0x3d4930f4	0.04911895
3	0x3c5755c6	0.013143009
4	0xbd31c3de	-0.043399684
5	0xbd1add4a	-0.037808694
6	0x3daa128c	0.08304319
7	0x3c423f28	0.011855878
8	0x3d912c9e	0.07088588
9	0xbd031f74	-0.032012418
10	0x3d6b0d01	0.05738545
11	0xbb73b615	-0.0037187387
12	0x3d5bcd49	0.053662572
13	0xbd0489dd	-0.03235804
14	0x3d8db5d9	0.0691945
15	0xbcea8b45	-0.028630862
16	0xbd494051	-0.049133603
17	0xbdc2d06d	-0.0951241
18	0xbdeb41dc	-0.11487171
19	0x3d8c129f	0.06839489
20	0xbd7d769f	-0.061880704
21	0x3d95ca43	0.07313969
22	0x3c1838da	0.009290898
23	0xbcfe998d	-0.031079078
24	0xbcc4595f	-0.023968397
25	0x3d037a0d	0.03209882
26	0x3d95ac70	0.073082805
27	0xbca244a9	-0.01980813
28	0x3d2db659	0.04241023
29	0xbcab0484	-0.020876177
30	0x3ccbee87	0.024894012
31	0x3dc593a6	0.09647302
32	0xbaae6726	-0.0013305887
33	0xbd35551a	-0.044270612
34	0x3ce8d62d	0.02842244
35	0xbc4de9c3	-0.01256794
36	0x3da10e81	0.078640945
37	0xbc6a1c0a	-0.014288912
38	0xbc428c8a	-0.011874327
39	0x3c9bc207	0.019013418
40	0x3d167eb1	0.036741916
41	0x3cccbe6e	0.024993148
42	0x3d83640f	0.06415569
43	0xbd79bbab	-0.06096999
44	0x3d086cc3	0.03330685
45	0x3c448b2c	0.011996072
46	0x3d8a3696	0.06748693
47	0x3d9314d8	0.0718171
48	0x3d90e212	0.070743695
49	0x3d25b491	0.040455405
50	0x3d2cafbe	0.04215979
51	0x3cbc2f9b	0.022971919
52	0x3d4b4931	0.049630348
53	0x3d488541	0.048955206
54	0x3d2983c4	0.041385427
55	0x3d90a906	0.07063489
56	0x3d12b32c	0.035815403
57	0xbda9a2ab	-0.082829796
58	0x3d9b800e	0.07592784
59	0xbdb8124d	-0.089878656
60	0xbd80106c	-0.06253132
61	0xbdcb0751	-0.09913505
62	0x3d1bb095	0.0380102
63	0x3d9bbb60	0.07604098
64	0x3d92da2c	0.07170519
65	0x3d2a408d	0.041565467
66	0xbbf5e43c	-0.0075040143
67	0x3d42c81d	0.047554124
68	0x3c87f1f7	0.01659487
69	0x3dd77314	0.10519996
70	0x3d5327f7	0.051551785
71	0x3dd420a3	0.103577875
72	0xbc715094	-0.014728684
73	0x3c42ad68	0.011882164
74	0x3d19c8c6	0.037544988
75	0x3dc0cf75	0.09414569
76	0x3da12bdb	0.07869693
77	0x3d24d126	0.040238522
78	0x3d21cb88	0.039500743
79	0x3ceb7deb	0.028746566
80	0xbd08bd54	-0.033383682
81	0x3d532d23	0.051556718
82	0x3c32e354	0.010918457
83	0xbd994529	-0.074838944
84	0x3d4d5e78	0.05013892
85	0xbd8d56c2	-0.06901313
86	0xbd8f0154	-0.06982675
87	0x3d8ab201	0.06772233
88	0xbdd2a1cf	-0.10284769
89	0x3d01f786	0.031730197
90	0x3d66de2a	0.056364216
91	0x3db8bb67	0.09020119
92	0x3d65e559	0.056126926
93	0x3d9d310e	0.07675372
94	0xbcc544b6	-0.024080615
95	0xbc60127d	-0.013676283
96	0xba0ed712	-0.0005448918
97	0xbda60681	-0.08106709
98	0x3c02da41	0.007986606
99	0xbd241b3b	-0.04006503
100	0xbd7e6c2b	-0.062114876
101	0xbbef23a8	-0.0072979517
102	0xbd49eec1	-0.04929996
103	0xbda6e762	-0.081496015
104	0xbd1f47f3	-0.038886975
105	0x3d68a171	0.056794588
106	0xbdd7363f	-0.105083935
107	0xbd5bdb6b	-0.05367605
108	0xbd8e7a4a	-0.069569185
109	0x3d0c20f2	0.034211107
110	0xbd8d71c0	-0.06906462
111	0xbc89db9b	-0.016828349
112	0x3cf0b939	0.029385196
113	0x3d1f303d	0.038864363
114	0xbd39b4b6	-0.045338355
115	0x3dc2f160	0.09518695
116	0x3d972a77	0.073811464
117	0x3dc2a970	0.09504974
118	0xbcd68a08	-0.026188865
119	0xbcd68a11	-0.026188882
120	0xbc8d094d	-0.017216349
121	0xbd26c37e	-0.04071378
122	0xbdb256b5	-0.08707944
123	0x3db7c2cb	0.08972701
124	0xbc09adb2	-0.008403229
125	0xbd81f552	-0.06345619
126	0x3d771cab	0.060330074
127	0x3bb15ad8	0.0054124407
128	0xbc33e733	-0.010980415
129	0xbd4ae162	-0.049531348
130	0x3d09ae90	0.03361374
131	0x3d937943	0.07200863
132	0x3dbbea9a	0.09175606
133	0x3dad7b79	0.08470816
134	0x3b46b07c	0.0030317595
135	0xbdd6d9df	-0.10490774
136	0x3c4c5ea5	0.012473737
137	0x3d621e65	0.055204768
138	0xbd7d24b0	-0.061802566
139	0xbd658456	-0.05603441
140	0x3cc8f125	0.02452905
141	0xbc245ca7	-0.010031856
142	0x3d8a75a6	0.06760721
143	0x3da2b63d	0.079449154
144	0x3da01230	0.07815969
145	0xbda9cc1f	-0.08290886
146	0xbdcea21f	-0.10089516
147	0xbd70ef04	-0.058821693
148	0xbcc1ad2a	-0.023642141
149	0xbd700f3f	-0.05860829
150	0xbdc73d47	-0.097284846
151	0xbbf06e85	-0.0073373937
152	0xbc3f3c3b	-0.011672075
153	0xbc8cd7b1	-0.017192693
154	0xbbafaf88	-0.005361501
155	0x3d8fd2bf	0.070226185
156	0x3db08965	0.08619956
157	0x3d7082b0	0.058718383
158	0xbbf0d657	-0.00734977
159	0x3d8beefc	0.06832692
160	0x3c831c26	0.016004633
161	0xbca8f6e2	-0.020625535
162	0x3d498814	0.04920204
163	0x3d630a52	0.055429764
164	0xbd312c96	-0.04325541
165	0x3ca91abf	0.020642636
166	0x3b1fd3b3	0.0024387657
167	0xbdbe445d	-0.09290383
168	0xbc50622d	-0.012718719
169	0xbd43e0d0	-0.04782182
170	0xbd8a3a6a	-0.06749423
171	0x3af048d5	0.0018332253
172	0x3cdcc430	0.026949018
173	0x3c76463a	0.015031392
174	0xbd9a9aac	-0.075490326
175	0xbddcfc60	-0.10790324
176	0xb957e800	-0.00020590425
177	0xbd7eab58	-0.062175125
178	0x3ca969b0	0.020680279
179	0x3cd8050c	0.026369594
180	0xbcc7d06d	-0.024391377
181	0xbae7c79e	-0.0017683392
182	0xbd8203ac	-0.063483566
183	0x3d5b9368	0.053607374
184	0xbcc38e16	-0.023871463
185	0xbd22ee82	-0.03977824
186	0xbce13dbb	-0.027495256
187	0x3d51f7db	0.051261764
188	0xbddc642f	-0.10761296
189	0xbd130b18	-0.03589925
190	0x3d255b85	0.040370483
191	0xbd8aa693	-0.06770053
192	0x3dbd1c1e	0.092338786
193	0xbda62dc8	-0.08114201
194	0xbd8cbc16	-0.06871812
195	0x3d24065c	0.040045127
196	0x3d1b7951	0.037957493
197	0xbc0c5450	-0.008565024
198	0xbc3c76f2	-0.011502968
199	0x3d3a3fd9	0.045471046
200	0xbd704f9c	-0.05866967
201	0xbd20d325	-0.039263863
202	0x3d5d0abb	0.05396531
203	0x3d4f35de	0.05058848
204	0x3de08426	0.10962705
205	0xbd9abf79	-0.07556052
206	0xbd84bacc	-0.06480941
207	0xbd361aba	-0.044459082
208	0xbdb85838	-0.090012014
209	0x3d813d92	0.06310572
210	0xbd827ed7	-0.06371849
211	0x3c400c3d	0.011721668
212	0xbd393699	-0.045218084
213	0xbdd5bf9a	-0.10436936
214	0xbd80b248	-0.062840044
215	0xbd0879b7	-0.0333192
216	0x3d98bfec	0.07458481
217	0x3c963e7c	0.018340342
218	0xbd1b1490	-0.037861407
219	0x3d79ee8b	0.061018508
220	0x3c5036f3	0.012708413
221	0xbca970d9	-0.020683693
222	0xbdaba220	-0.08380532
223	0xbc05c8e0	-0.008165568
224	0x3c0394de	0.008031098
225	0x3d6f9a08	0.058496505
226	0xbd0f6b38	-0.03501436
227	0xbd29d3d2	-0.041461773
228	0x3bda3aa6	0.0066598235
229	0xbc0f68ec	-0.008753043
230	0x3cbf5ad6	0.023358744
231	0x3cf07ad6	0.029355448
232	0x3cda376d	0.026637757
233	0xbd9b34b0	-0.07578409
234	0x3dbe1c65	0.092827596
235	0x3dbcca47	0.09218269
236	0x3da1f3f1	0.07907856
237	0x3d26fdfd	0.040769566
238	0xbdb0db5e	-0.08635591
239	0xbd8e8797	-0.069594555
240	0x3dad869e	0.08472942
241	0x3dd98367	0.10620766
242	0x3dc6309d	0.09677241
243	0xbcd781c7	-0.026307
244	0x3d2043df	0.039127227
245	0x3cb5c9f4	0.022191025
246	0xba051f7a	-0.0005078238
247	0xbd8f9b86	-0.070120856
248	0x3c8974ac	0.016779266
249	0xbd2315d0	-0.039815724
250	0xbdd8312e	-0.10556255
251	0x3c878568	0.016543105
252	0x3d80b42c	0.06284365
253	0x3d450fda	0.04811082
254	0x3da50abe	0.080586895
255	0xbdaec813	-0.08534255

conv_block_3.0.bias f4 [10]
0	0x3bc947ab	0.0061425767
1	0x3d6e48f6	0.05817505
2	0xbdc5abbb	-0.096518956
3	0x3d72a220	0.059236646
4	0x3dc37669	0.09544069
5	0x3d7a194b	0.061059278
6	0xbd1ae0ae	-0.037811927
7	0xbdbf80b1	-0.09350718
8	0xbcbcd6a3	-0.023051566
9	0x3d12d1ad	0.035844494

conv_block_3.2.weight f4 [10, 10, 3, 3]
0	0x3c423392	0.011853116
1	0xbd8f7ddc	-0.07006428
2	0x3d352455	0.044224102
3	0xbca0f6d5	-0.019648949
4	0xbcaf5e54	-0.021407284
5	0x3dab9620	0.083782434
6	0x3d3ee000	0.04660034
7	0xbc90315a	-0.017601658
8	0x3dca6b5f	0.09883761
9	0x3dc806fa	0.09766956
10	0x3caa6350	0.020799309
11	0xbc7cc812	-0.01542856
12	0x3d870f02	0.065946594
13	0x3af81c12	0.0018929264
14	0xbdc3ddb0	-0.09563768
15	0xbd891f30	-0.06695402
16	0xbce8a24e	-0.028397705
17	0x3d0c7380	0.034289837
18	0xbcd3cc95	-0.025854388
19	0x3b740840	0.0037236363
20	0xbd2c6457	-0.04208788
21	0xbdea20c3	-0.1143203
22	0xbd4b96d5	-0.04970439
23	0xbd376522	-0.044774182
24	0x3caba3f0	0.020952195
25	0xbde4b647	-0.11167579
26	0xbdb009f4	-0.085956484
27	0x3d2910be	0.041275732
28	0x3c5974c0	0.013272464
29	0x3d5725fd	0.052526463
30	0xbd9c9d72	-0.07647218
31	0x3c6c076a	0.0144060645
32	0x3daadd06	0.08342938
33	0xbdd1bb34	-0.10240784
34	0x3dcccce6	0.10000019
35	0x3b0328d6	0.0020013354
36	0x3d403214	0.04692276
37	0xbc820724	-0.015872546
38	0x3d73e144	0.059541002
39	0xbd63bcc6	-0.05559995
40	0x3d9e2f26	0.077238366
41	0xbd4f8822	-0.050666936
42	0x3b9495ee	0.0045344746
43	0x3cf88611	0.030337365
44	0xbc712e4e	-0.014720513
45	0xbd5dbab3	-0.05413313
46	0xbd353dc1	-0.044248346
47	0xbd55963c	-0.052145228
48	0x3d5abecc	0.053404614
49	0xbcc94c3a	-0.02457248
50	0xbcce0649	-0.025149481
51	0x3d31cc17	0.043407526
52	0x3d21381f	0.039360162
53	0xbb943c1b	-0.0045237667
54	0xbd6348d7	-0.055489387
55	0xbbf2849a	-0.0074010612
56	0x3d9dc626	0.077038094
57	0xbdc1adf3	-0.09457006
58	0x3dd3eb36	0.10347597
59	0x3d4d5b20	0.05013573
60	0x3d9c995a	0.07646437
61	0xbd29624e	-0.041353516
62	0xbda43969	-0.080187626
63	0xbddd265f	-0.10798334
64	0x3dce323f	0.100681774
65	0x3be9260b	0.007115131
66	0x3c004e85	0.0078312205
67	0x3cf43a56	0.029812973
68	0xbd3acb83	-0.04560424
69	0xbd97e4e1	-0.07416702
70	0xbd041e55	-0.03225549
71	0xbbb79ebb	-0.005603639
72	0xbdc5b3a4	-0.09653404
73	0xbd824b6b	-0.06362041
74	0x3d71a043	0.058990728
75	0x3dd47b04	0.10375026
76	0x3d46c94d	0.04853182
77	0xbd26bc61	-0.040706996
78	0x3d64113a	0.05568049
79	0xbc0d4c39	-0.00862413
80	0xbd4a678b	-0.049415153
81	0xbd861448	-0.06546837
82	0xbd30e22d	-0.043184448
83	0xbdd5933b	-0.104284726
84	0x3dcb3e3c	0.0992398
85	0x3c9c1c29	0.019056397
86	0xbb87d029	-0.0041446877
87	0x3d970100	0.073732376
88	0x3d846430	0.06464422
89	0x3db0b566	0.08628349
90	0xbd974025	-0.073852815
91	0x3d1832b9	0.037157748
92	0x3d30c123	0.04315294
93	0xbd4fe51b	-0.0507556
94	0xbbcbc6f0	-0.0062187836
95	0x3d261e81	0.040556435
96	0x3d46e388	0.048556834
97	0xbba06053	-0.0048942952
98	0xbd8dd2ad	-0.06924949
99	0xbd329ccc	-0.043606564
100	0x3cab9b45	0.020948062
101	0xbda587f5	-0.08082572
102	0xbdd1e918	-0.10249537
103	0xbdd100cb	-0.10205229
104	0xbd29a21c	-0.041414365
105	0x3ce43dc1	0.027861478
106	0x3c1e47c8	0.009660669
107	0xbc709781	-0.014684559
108	0x3c764407	0.015030867
109	0xbdbce89c	-0.09224054
110	0x3dc4618d	0.09588919
111	0x3d5dabec	0.054119036
112	0x3d24d15a	0.040238716
113	0xbbd7fdd1	-0.0065915366
114	0xbdbd353d	-0.0923867
115	0x3dd1fca0	0.102532625
116	0x3db5b4fe	0.08872412
117	0x3cceb042	0.02523053
118	0x3d053f7b	0.032531243
119	0x3cfa7703	0.030574327
120	0x3d9d948c	0.07694349
121	0xbd021f3e	-0.031768076
122	0x3ddd0316	0.10791604
123	0xbd85e6ae	-0.06538139
124	0xbd0cc048	-0.03436306
125	0x3d4658bc	0.048424467
126	0xbd80ead4	-0.0629479
127	0xbd7df6e1	-0.06200302
128	0x3db734fb	0.08945652
129	0xbcfa2589	-0.030535476
130	0x3dac675b	0.08418151
131	0x3dbbb99c	0.091662616
132	0x3d0d14d7	0.034443703
133	0x3dc396b3	0.09550228
134	0xbdad5c22	-0.084648386
135	0x3ca38cec	0.019964658
136	0x3d0a1700	0.03371334
137	0xbdb6c385	-0.08924011
138	0x3ccb4bd5	0.024816433
139	0xbcfb7b70	-0.030698508
140	0x3ddea933	0.10872116
141	0xbc61cad3	-0.013781267
142	0x3dac8346	0.08423476
143	0x3d86bec7	0.06579357
144	0x3d067bd1	0.032832924
145	0xbd33809e	-0.04382383
146	0xbd6dadef	-0.058027204
147	0xbd0a3766	-0.03374424
148	0xbd9e6d3a	-0.07735677
149	0xbdc2de3a	-0.095150426
150	0x3c3efe17	0.011657259
151	0x3d18bc18	0.037288755
152	0x3d88ff7d	0.066893555
153	0x3d61d61b	0.055135828
154	0x3cad962c	0.021189772
155	0xbd576477	-0.052586045
156	0xbd05fe19	-0.03271303
157	0x3daaa263	0.08331754
158	0x3b95be99	0.00456984
159	0xbd813f58	-0.0631091
160	0x3dc0d923	0.094164155
161	0x3d993adc	0.0748193
162	0xbc8b5b9e	-0.01701146
163	0x3d68cbc9	0.05683497
164	0x3d8821ec	0.06647095
165	0x3d68d8d9	0.056847427
166	0xbce7a68d	-0.02827766
167	0x3d95b017	0.07308977
168	0xbd3ae543	-0.045628797
169	0x3c04fa6f	0.008116349
170	0x3dc005fa	0.0937614
171	0x3c4e35d2	0.012586074
172	0xbc85ba2a	-0.016324122
173	0xbd86fce1	-0.065912016
174	0xbd6ca0c1	-0.057770494
175	0xbda7372c	-0.0816482
176	0xbdac8581	-0.08423901
177	0xbda2b3b8	-0.07944435
178	0xbcccae35	-0.024985412
179	0x3d72b01d	0.059249986
180	0x3bf43714	0.007452855
181	0xbdba3f26	-0.09094076
182	0xbd843686	-0.06455712
183	0xbbf79182	-0.0075551877
184	0xbdb79e29	-0.089657135
185	0xbd9a72a0	-0.07541394
186	0xbdba38ff	-0.090929024
187	0xbda01980	-0.07817364
188	0xbd779e6c	-0.060453817
189	0x3d388433	0.04504795
190	0x3dda2e1d	0.10653327
191	0xbc89ad7d	-0.016806358
192	0xbd2b2916	-0.04178723
193	0xbd320abf	-0.04346728
194	0xbc0f9245	-0.008762901
195	0xbd3ac615	-0.045599062
196	0x3dba50a0	0.09097409
197	0x3d29c589	0.04144815
198	0xbdac66b5	-0.08418027
199	0xbc9de3d7	-0.019273682
200	0xbd9b4684	-0.07581809
201	0x3d89a714	0.06721321
202	0x3dadb42c	0.08481631
203	0xbc32cce6	-0.010913109
204	0xbcdd2b2c	-0.026998125
205	0x3bbc27b4	0.0057420377
206	0x3da3222e	0.07965504
207	0xbd85889c	-0.06520197
208	0xbdd580a8	-0.1042493
209	0x3d04804c	0.032348916
210	0x3b24b570	0.002513256
211	0xbd8d8d76	-0.06911747
212	0xbdce560c	-0.10075006
213	0x3ca4a736	0.020099264
214	0xbbae69a7	-0.0053226533
215	0xbaa9b32a	-0.0012947072
216	0x3dd56a6b	0.10420688
217	0xbd3478c9	-0.044060502
218	0x3d0c4418	0.034244627
219	0x3d8af63d	0.067852475
220	0xbd29f6b0	-0.041495025
221	0x3dbba4cb	0.09162291
222	0xbd2b1e12	-0.041776724
223	0xbc2f7687	-0.010709411
224	0xbcf7b9d9	-0.030239986
225	0xbdbfbab0	-0.0936178
226	0xbd919ff1	-0.071105845
227	0xbce219c9	-0.027600186
228	0xbdc41e92	-0.09576143
229	0x3ca30aec	0.019902669
230	0xbbfefdfc	-0.007781742
231	0xbd07ee90	-0.033186495
232	0x3c28e575	0.010308613
233	0x3db4edad	0.088343956
234	0x3dd690bd	0.104768254
235	0xbbec553c	-0.007212309
236	0xbd2fb021	-0.04289258
237	0x3ddd7a20	0.10814309
238	0x3dd2e8b6	0.10298292
239	0xbd30b15a	-0.043137886
240	0x3d8100d9	0.0629899
241	0xbd62f61c	-0.05541049
242	0x3db55733	0.088545226
243	0xbcb4c390	-0.022065908
244	0xbd8b1443	-0.06790974
245	0x3dda2e5e	0.10653375
246	0xbd9325b6	-0.07184927
247	0x3d83e8ce	0.06440888
248	0x3d8f5319	0.069982715
249	0x3d465619	0.048421953
250	0xbdc5c604	-0.09656909
251	0x3cad0b1c	0.021123461
252	0x3dc2cd69	0.09511835
253	0x3dc87ea2	0.09789778
254	0xbced3242	-0.028954629
255	0x3d09de43	0.03365923

conv_block_3.2.bias f4 [10]
0	0xbcbd637e	-0.02311873
1	0x3cf54e53	0.029944574
2	0xbb3c2e52	-0.0028714132
3	0xbdc3e053	-0.09564271
4	0x3c6272c9	0.013821312
5	0xbd91c9ec	-0.07118592
6	0x3dc066bb	0.09394594
7	0xbd549371	-0.051898424
8	0x3ce561f5	0.028000811
9	0xbdbe485e	-0.09291147

classifier.1.weight f4 [3, 6250]
0	0xbc5af650	-0.01336439
1	0x3c722885	0.014780168
2	0xb8a7eb8c	-8.0070546e-05
3	0x3b7d7f40	0.0038680583
4	0xbb35c61d	-0.0027736493
5	0xbc0f6bd6	-0.008753737
6	0xbbebfdfa	-0.007201907
7	0x3b013b06	0.0019719019
8	0x3c240b68	0.010012485
9	0xbc1191b7	-0.008884839
10	0xbbb1795f	-0.00541608
11	0x3b15ecc5	0.0022876721
12	0xbc4f1542	-0.012639346
13	0x3c1b3ea8	0.009475388
14	0xbba0f6da	-0.0049122395
15	0x3c29d077	0.010364643
16	0xbc4a1bd1	-0.0123357335
17	0xbb747894	-0.0037303315
18	0xbc79ed42	-0.015254321
19	0x3bbcd463	0.005762623
20	0xbc58dc27	-0.013236082
21	0xba05de9e	-0.000510672
22	0xb8c5f338	-9.438995e-05
23	0xb8e6427e	-0.0001097964
24	0x3b7d761d	0.0038675137
25	0xbc2fffa6	-0.010742104
26	0x3aa35ee9	0.0012464199
27	0xbb8cc712	-0.004296192
28	0xbade0197	-0.001693773
29	0x3ad7ab07	0.0016454168
30	0x3bb24cbc	0.0054412764
31	0x38d145e8	9.978918e-05
32	0xba1fb791	-0.0006092722
33	0xbc8ed78c	-0.017436765
34	0xbc79ad4b	-0.01523907
35	0x3b8b4182	0.0042497525
36	0x3b7eb8dc	0.003886751
37	0xbc0ac71b	-0.008470322
38	0xbc431c12	-0.011908548
39	0x3ad08c89	0.0015911023
40	0xbc5f7e9e	-0.013641028
41	0xb991c926	-0.00027806422
42	0x3af5f755	0.0018765727
43	0x3bf613a2	0.0075096646
44	0x3a1fba2c	0.00060931104
45	0x3bd42215	0.0064737895
46	0xbb7dac1c	-0.0038707322
47	0x3b17d19e	0.0023165713
48	0xbbe7df7d	-0.0070762024
49	0x3a816524	0.0009872061
50	0x3ba7fe5f	0.005126759
51	0x3b798434	0.0038073184
52	0x39e61d11	0.00043890675
53	0x3b0c1497	0.0021374577
54	0x3c07949b	0.008275176
55	0xbc6f25b1	-0.014596389
56	0x3b032cb4	0.0020015659
57	0xbc8ec606	-0.01742841
58	0x3bbcf06b	0.0057659647
59	0xbc49e1c0	-0.012321889
60	0xbc9e5bf0	-0.019330949
61	0xbbfa864e	-0.007645405
62	0xbaf130f5	-0.0018401431
63	0x3b04b08e	0.0020246836
64	0xbbdfba14	-0.006827602
65	0xbc725f48	-0.014793225
66	0xbbcad516	-0.0061899526
67	0xbc2b1df1	-0.01044415
68	0xbb1312f4	-0.0022441717
69	0xbba845eb	-0.005135288
70	0x3c013b1e	0.00788763
71	0xbc86506b	-0.016395768
72	0xbb9e9bce	-0.0048403507
73	0xbbd08578	-0.006363567
74	0x3b656ce5	0.0035007533
75	0x3b405ddd	0.0029352822
76	0xbb17d0b1	-0.0023165161
77	0xbc13a287	-0.0090109175
78	0x3b046b40	0.0020205528
79	0x3bb44053	0.005500832
80	0xbc93976b	-0.018016538
81	0x3a1faff8	0.000609159
82	0xbca960ce	-0.020676043
83	0xbae2f1a9	-0.0017314452
84	0xbb9f3330	-0.004858397
85	0x3c137e2c	0.00900225
86	0xbaf14871	-0.001840843
87	0xbc4e41aa	-0.012588898
88	0xbbf1611c	-0.0073663127
89	0xbca0a99a	-0.019612122
90	0xbc9745f9	-0.018465983
91	0xbb87d3ab	-0.004145106
92	0xbbb16c8a	-0.00541455
93	0x3b0eb976	0.0021778024
94	0x3bd964b8	0.006634321
95	0xbc30f275	-0.010799994
96	0xbc3a1aae	-0.0113589
97	0x3aebc205	0.00179869
98	0xbc88fe6a	-0.016722877
99	0x3bc4249e	0.0059858104
100	0x3aa5f257	0.0012660724
101	0xbbe487dc	-0.0069742035
102	0xbba83bca	-0.0051340805
103	0xbc19a739	-0.009378248
104	0xba87b5d0	-0.0010353867
105	0xbc524117	-0.012832901
106	0x3a95a2e5	0.0011416344
107	0xbbe4c17d	-0.0069810734
108	0x3c2a2d55	0.010386785
109	0x3bbd557e	0.0057780137
110	0xbc5a0bba	-0.01330846
111	0xbabdb0bf	-0.001447223
112	0xbcba1831	-0.022716613
113	0xbc8f849b	-0.017519286
114	0xbc9caa86	-0.01912428
115	0xbb88e39c	-0.004177524
116	0xbc8e51ee	-0.017373051
117	0xbc8a82f3	-0.016908145
118	0x3b7d3159	0.003863415
119	0xbc49f3a3	-0.012326154
120	0xbcbf61de	-0.023362096
121	0x3bb5c99c	0.0055477154
122	0xbc208734	-0.00979786
123	0xbb2c6a72	-0.0026308564
124	0x3b69c557	0.0035670602
125	0x39e70f12	0.00044070982
126	0x3a802300	0.0009776056
127	0x3c08a6c4	0.008340541
128	0x3b2c0f29	0.0026254153
129	0x3b4e56b1	0.0031484778
130	0xbc410844	-0.011781756
131	0xbc80616d	-0.015671456
132	0xbc588dc2	-0.013217391
133	0xba7816d4	-0.0009463851
134	0x39519af2	0.00019989515
135	0xbc826989	-0.015919464
136	0xbbcd00a8	-0.0062561817
137	0x3b0400e4	0.0020142132
138	0x3bad2e3e	0.0052850535
139	0xbc4b2cea	-0.012400845
140	0xbc86fb92	-0.01647738
141	0xbc19a93b	-0.009378727
142	0xbb943acf	-0.004523612
143	0x3bf7ef58	0.007566374
144	0xbbba0b00	-0.005677581
145	0xbbf4c337	-0.0074695605
146	0x3c0666f0	0.008203253
147	0x3c353d83	0.011062029
148	0xbc3d8897	-0.01156821
149	0x3b30d51d	0.0026982494
150	0xba71bca4	-0.000922153
151	0xbc2f910d	-0.010715735
152	0xbc4b385a	-0.012403572
153	0xba9c3e7d	-0.0011920478
154	0xbc93ca7f	-0.018040894
155	0xbc09c8fe	-0.008409737
156	0xbbb7f812	-0.005614289
157	0xbb999ccb	-0.0046878806
158	0xbc28cc8b	-0.010302673
159	0x3b3baf88	0.002863856
160	0x39a046da	0.00030570367
161	0xbbe4b689	-0.0069797677
162	0xbb431ca6	-0.0029771714
163	0x3c370cf7	0.011172525
164	0xbc1ac75c	-0.009446945
165	0xbb32bd8a	-0.0027273619
166	0x3c174bbd	0.009234366
167	0x3a300990	0.0006715292
168	0x3a190396	0.0005837021
169	0x3b653e7c	0.003497987
170	0xbc91dbe7	-0.017805053
171	0xbb9910e5	-0.0046712034
172	0xbbd2729d	-0.0064223544
173	0x3be65de4	0.0070302356
174	0x3bc6688f	0.006054945
175	0x3c1f8965	0.009737347
176	0xbc37d05b	-0.011219109
177	0x3a074897	0.0005160658
178	0xbb889d40	-0.0041691363
179	0xba6ce1f3	-0.00090363546
180	0xbc36f429	-0.011166611
181	0x3b0fe068	0.0021953825
182	0xbc39db2b	-0.011343758
183	0xbc1d0f8d	-0.009586227
184	0x3a0c77a7	0.0005358406
185	0x3bddd225	0.006769436
186	0x3c063d42	0.008193316
187	0xbbbee6cb	-0.0058258525
188	0xbc486604	-0.012231354
189	0x3c4d7d84	0.012542132
190	0xbc14f295	-0.009091039
191	0x3c157197	0.00912132
192	0xbc92dc52	-0.017927323
193	0x39a39b30	0.00031205406
194	0xbc53f757	-0.012937388
195	0xbca19df1	-0.019728633
196	0xbc982a1d	-0.018574769
197	0xbbed4f8c	-0.0072421487
198	0x3bdbb23b	0.0067045963
199	0x3c2cf381	0.010556103
200	0xbc59007c	-0.013244744
201	0xbc06d78a	-0.008230099
202	0xbb097776	-0.0020975745
203	0x3b8d53b7	0.004312958
204	0xbbb92599	-0.005650234
205	0x3afb8b74	0.001919134
206	0x3b033ec0	0.0020026416
207	0x3ab46b55	0.0013764898
208	0xbbdd4455	-0.0067525306
209	0x3ad2f924	0.0016095978
210	0xbb7cf668	-0.0038599018
211	0xbadcb270	-0.0016837846
212	0x3b52b611	0.0032151977
213	0x39a3eadc	0.00031264767
214	0x3bfa3507	0.007635716
215	0xbb93173d	-0.004488854
216	0xbbd03902	-0.006354452
217	0xbbbe4988	-0.0058071055
218	0x38eb887d	0.00011231096
219	0xbc07a19e	-0.008278279
220	0xbc5762b8	-0.013146095
221	0x3980129a	0.00024427922
222	0x3aef9091	0.0018277337
223	0x3b8f2659	0.004368585
224	0xbb6becf1	-0.0035999382
225	0x39869028	0.00025665876
226	0x3a485376	0.0007641831
227	0x3a55c709	0.0008154964
228	0xbc442def	-0.011973842
229	0xbbeaeda3	-0.007169442
230	0xba294437	-0.0006457003
231	0xbc894ebc	-0.016761176
232	0xbc33a69e	-0.010965018
233	0xbc566251	-0.013084964
234	0x3c063165	0.0081904875
235	0xbc0e344c	-0.008679461
236	0x3b6739b0	0.0035282187
237	0x3bb558d2	0.00553427
238	0x3c8d0977	0.017216427
239	0x3c763ce5	0.015029167
240	0x3c11ff12	0.008910911
241	0xbba852cd	-0.0051368237
242	0xbc1a9a18	-0.009436153
243	0xbc8ea05f	-0.017410455
244	0xbbef877a	-0.0073098512
245	0xbc961540	-0.01832068
246	0xba9f4230	-0.0012150463
247	0xbc0007af	-0.007814332
248	0x3c029052	0.007968979
249	0xbbdcb80a	-0.0067358064
250	0x3c0dad56	0.008647284
251	0x3bae251d	0.005314483
252	0xbbf1e120	-0.0073815733
253	0x3be2f31c	0.0069259536
254	0x39a015b7	0.00030533757
255	0x39b8d4d0	0.00035253773

classifier.1.bias f4 [3]
0	0x3b11c387	0.0022241788
1	0x3ade42f0	0.0016957205
2	0x3c0a8406	0.008454328
